research/pulse/archive/deep_learning/data/20210319_224037/model_D_10000.pth (torch, 531935 bytes, 13 tensors)

conv1.weight f4 [8, 2, 3]
0	0x3db7b0d8	0.08969277
1	0xbd4249f2	-0.0474338
2	0x3d7ea461	0.062168483
3	0x3e4ead87	0.20183383
4	0x3e83a782	0.25713736
5	0xbe16379e	-0.14669654
6	0xbe984e02	-0.29747015
7	0xbed9ee71	-0.4256473
8	0x3bcda6cd	0.0062759877
9	0xbd42555d	-0.04744469
10	0xbbca376a	-0.0061711567
11	0x3e70620c	0.23474902
12	0x3d8a74b5	0.06760541
13	0x3e985e05	0.2975923
14	0xbd7cbb90	-0.06170231
15	0xbd8a58cf	-0.0675522
16	0xbe57835b	-0.21046202
17	0x3d683fe5	0.05670156
18	0xbee1715c	-0.440318
19	0x3d5331b9	0.05156109
20	0xbe7b8ab8	-0.24564636
21	0x3dd92736	0.10603182
22	0x3e6ad347	0.22932158
23	0xbda2b741	-0.07945109
24	0x3e022be8	0.12712061
25	0x3ed869b4	0.42268145
26	0xbccbe85b	-0.02489107
27	0x3e0e54ec	0.13899583
28	0x3ea84189	0.328625
29	0x3dce7170	0.1008023
30	0xbea0d45b	-0.31412014
31	0x3e87744b	0.26455912
32	0xbed1d595	-0.40983263
33	0xbe894335	-0.26809087
34	0xbcf5a748	-0.029986992
35	0x3e0813bf	0.13288783
36	0x3b7503e9	0.0037386364
37	0x3e9cc02a	0.3061536
38	0xbe8af425	-0.27139392
39	0x3e61afae	0.22039673
40	0x3e8a0b4c	0.26961744
41	0x3df3b393	0.118994854
42	0xbedd718a	-0.43250686
43	0x3e9ebf87	0.310055
44	0xbe582933	-0.21109466
45	0x3e1089d0	0.14115071
46	0x3e453829	0.19259705
47	0xbebe77d9	-0.37200812

conv1.bias f4 [8]
0	0xbe8e52b0	-0.2779746
1	0x3e4cd2cf	0.20002292
2	0xbe90c421	-0.28274634
3	0xbe6dda91	-0.23227908
4	0xbe270ae5	-0.1631275
5	0x3d503101	0.050827984
6	0x3cba92de	0.02277511
7	0x3e2ffd30	0.17186427

conv2.weight f4 [16, 8, 3]
0	0x3dc4470d	0.09583864
1	0x3d279593	0.04091413
2	0xbb59be68	-0.0033225063
3	0xbbcbc1b2	-0.0062181586
4	0xbd9733d2	-0.07382931
5	0xbe48b1c9	-0.1959907
6	0x3d182b94	0.037150934
7	0xbe275493	-0.16340856
8	0x3e2cc4ad	0.16871901
9	0xbd4c13bc	-0.049823508
10	0xbdbd6b1e	-0.092489466
11	0x3e0426d1	0.12905432
12	0xbe48184c	-0.19540519
13	0xbe336446	-0.1751872
14	0x3e236843	0.15957741
15	0xbe01b23f	-0.12665652
16	0x3e3ed00a	0.18634048
17	0xbe398295	-0.1811622
18	0xbd5c1a3a	-0.05373595
19	0x3e3b8cee	0.18315479
20	0x3dbf7df2	0.09350194
21	0xbdd9166f	-0.10599982
22	0x3d4e95c6	0.050435804
23	0xbdb3e5e5	-0.08784083
24	0xbe2f7ae5	-0.17136724
25	0x3dfbd622	0.12296702
26	0x3c828082	0.015930418
27	0xbda141c1	-0.0787387
28	0x3d9021a8	0.070376694
29	0x3de14180	0.10998821
30	0x3e531275	0.2061251
31	0xbdd4dd7b	-0.103938065
32	0x3e1fcbcb	0.15605085
33	0x3e0b9edf	0.13634823
34	0x3e478b75	0.19486792
35	0xbe19b01e	-0.1500859
36	0xbdd90426	-0.105964944
37	0x3d456d13	0.048199724
38	0xbe08a9ed	-0.13346072
39	0xbd62eb4c	-0.055400178
40	0x3e041b2d	0.12900992
41	0x3dabcd48	0.08388764
42	0x3d426c4c	0.04746656
43	0x3d94a814	0.07258621
44	0x3dc0c376	0.09412281
45	0x3e578573	0.21047
46	0x3e054f57	0.13018547
47	0x3e3901c2	0.18067077
48	0xbdd60b20	-0.10451341
49	0x3df6e6d1	0.120557435
50	0x3e0dc830	0.13845897
51	0x3de33af6	0.1109523
52	0xbd90ae24	-0.07064465
53	0x3e35754e	0.1772053
54	0xbe321b38	-0.17393196
55	0x3e10ff8b	0.14159982
56	0x3dd5cce7	0.10439473
57	0xbc96d03f	-0.018409846
58	0x3d1d6f45	0.038436193
59	0x3e24e1e0	0.1610179
60	0x3df7daf6	0.1210231
61	0xbddb7bd4	-0.10716978
62	0xbe47d9aa	-0.19516626
63	0x3d56285f	0.052284595
64	0xbd6af04d	-0.057358075
65	0xbd1ee694	-0.038794115
66	0xbdd4a569	-0.10383112
67	0x3d9c9b40	0.07646799
68	0x3cf20e95	0.029547969
69	0x3c9667ef	0.018360106
70	0x3e33797a	0.17526808
71	0xbd95ffbf	-0.0732417
72	0x3e4ec78b	0.20193307
73	0xbcfdbe23	-0.030974453
74	0x3e2cdc0c	0.16880816
75	0xbcc8304c	-0.024437092
76	0xbe256c22	-0.1615453
77	0xbddd584f	-0.10807859
78	0x3db6da30	0.08928335
79	0x3c6994b0	0.014256641
80	0xbd0ac31c	-0.033877477
81	0x3d100f18	0.035170645
82	0xbc565579	-0.013081902
83	0xbc4a40f0	-0.012344584
84	0x3a2ee540	0.0006671734
85	0x3e142572	0.14467409
86	0xbe4c375c	-0.19942993
87	0x3e18e9d4	0.14932948
88	0xbd977ac0	-0.073964596
89	0xbd81a96c	-0.06331143
90	0x3e2b9976	0.1675776
91	0xbe117bc4	-0.14207369
92	0xbd6e3d82	-0.058164127
93	0x3d8f1ee2	0.06988312
94	0xbdff78be	-0.124742016
95	0xbe02e7d0	-0.12783742
96	0x3d9c5d9d	0.07635043
97	0xbe1b5a37	-0.15171133
98	0x3dec0f3e	0.11526345
99	0x3d10832b	0.03528134
100	0x3e2824cc	0.16420287
101	0x3e607017	0.21917759
102	0xbe414f7e	-0.1887798
103	0xbe06196e	-0.13095638
104	0x3e0f5360	0.13996649
105	0x3df40cfd	0.1191654
106	0x3d5fd02e	0.054641895
107	0xbe02577a	-0.12728682
108	0xbdf0c4d0	-0.11756289
109	0xbd6a5620	-0.05721104
110	0xbe209a53	-0.1568387
111	0x3dda7e3c	0.106686085
112	0x3e019be8	0.1265713
113	0xbe10fd69	-0.14159168
114	0x3e349241	0.17633916
115	0xbc79b120	-0.015239984
116	0xbe28d309	-0.16486754
117	0xbe26bae6	-0.16282234
118	0x3e26dae9	0.16294445
119	0x3d111eb1	0.03542966
120	0xbde62da3	-0.11239173
121	0x3d901dcd	0.07036934
122	0x3d68a4d2	0.05679781
123	0xbe18b230	-0.14911723
124	0x3e2eeb40	0.17081928
125	0xbe2ad4f4	-0.16682798
126	0x3e31e284	0.17371565
127	0xbd0ad0b1	-0.03389043
128	0xbe3d2962	-0.18472818
129	0x3e486ad7	0.19572006
130	0xbe0746a7	-0.13210545
131	0xbd128fd2	-0.03578169
132	0x3e28b758	0.1647619
133	0xbd5594f5	-0.05214401
134	0x3d7e01cb	0.06201343
135	0x3de7b415	0.11313645
136	0x3e45a500	0.19301224
137	0x3e072e26	0.13201198
138	0xbe12cb50	-0.1433537
139	0xbda34f5d	-0.07974122
140	0xbe308274	-0.17237264
141	0x3b9c2228	0.004764814
142	0xbe00aad0	-0.1256516
143	0xbd7c48ff	-0.061593052
144	0xbe41ef85	-0.18939026
145	0xbdecb35a	-0.11557646
146	0x3c074e49	0.008258411
147	0xbdf1d961	-0.1180904
148	0x3db4a518	0.08820552
149	0x3e167be5	0.146957
150	0x3ddbcc17	0.107322864
151	0xbc903418	-0.017602965
152	0xbe0fb6cf	-0.1403458
153	0xbc8ffe63	-0.017577356
154	0x3ddb50e0	0.10708785
155	0x3deb26f8	0.11482042
156	0xbdc74226	-0.09729414
157	0x3e432eb8	0.1906079
158	0xbe2e4a9d	-0.1702065
159	0xbe024e8c	-0.12725276
160	0x3e3802e8	0.17969859
161	0x3e33e6db	0.17568533
162	0xbe31625a	-0.17322674
163	0xbd8c2ca1	-0.0684445
164	0x3e147036	0.1449593
165	0x3c8d2df4	0.017233826
166	0xbd577655	-0.052603085
167	0xbe309665	-0.17244871
168	0x3dd61b19	0.10454387
169	0x3e238ffb	0.15972893
170	0xbe137a50	-0.14402127
171	0x3e217177	0.1576594
172	0x3e48d8b0	0.1961391
173	0x3e520982	0.2051144
174	0xbe2130b2	-0.15741232
175	0xbd08d5c4	-0.033406988
176	0xbdc0ce74	-0.09414378
177	0x3e28ac52	0.16471985
178	0x3e29047e	0.1650562
179	0x3e3997a5	0.18124254
180	0xbe28215a	-0.16418973
181	0xbe0994fe	-0.13435742
182	0xbe46b4c3	-0.19404893
183	0x3e24d647	0.16097365
184	0x3daeb7ab	0.08531126
185	0xbd8b0180	-0.067873955
186	0x3e068919	0.13138236
187	0x3e4bee4f	0.19915126
188	0xbe4a2f68	-0.19744647
189	0xbe3bc57a	-0.1833705
190	0xbe09c1ac	-0.13452786
191	0xbd6ce41c	-0.05783473
192	0xbd51a85d	-0.051185954
193	0x3e26be1f	0.16283463
194	0x3b66fb90	0.0035245158
195	0xbe1d22bd	-0.15345283
196	0xbe3d9049	-0.18512072
197	0x3d68641f	0.056736108
198	0xbddfef71	-0.10934342
199	0x3d9b5afe	0.07585715
200	0x3e2ff690	0.171839
201	0x3e093deb	0.13402526
202	0xbe2c27e6	-0.16812095
203	0x3d8eadf5	0.069667734
204	0xbd444dd1	-0.047925774
205	0x3d34d69f	0.04414999
206	0x3e01cb25	0.1267515
207	0x3d0e5dc3	0.034757387
208	0xbe357348	-0.17719758
209	0xbe202d9a	-0.15642396
210	0xbe1c19e8	-0.15244257
211	0xbe391dee	-0.18077824
212	0x3e3ca8ab	0.18423717
213	0xbd9730d0	-0.07382357
214	0xbe381b29	-0.17979111
215	0x3ea7ca74	0.32771647
216	0xbd86b260	-0.06576991
217	0x3cc30999	0.023808287
218	0x3d57c3f6	0.052677117
219	0x3c957d17	0.018248124
220	0x3d37a9b0	0.04483956
221	0x3dc30c5a	0.0952384
222	0x3d873ef1	0.06603802
223	0x3e1abc86	0.15110978
224	0xbda99e96	-0.08282201
225	0x3d095020	0.03352368
226	0x3e2a027b	0.16602509
227	0x3e3a2ee3	0.18181948
228	0xbdc8015d	-0.09765885
229	0xbe40a0c6	-0.1881133
230	0x3d033ede	0.032042377
231	0xbe379648	-0.17928421
232	0xbe2a6915	-0.16641648
233	0x3e15423f	0.14576052
234	0xbd3bcc51	-0.04584915
235	0x3e3c5e81	0.18395425
236	0xbe2587ce	-0.16165087
237	0xbd46c297	-0.04852542
238	0x3e2e316a	0.17011037
239	0xbe371bb3	-0.1788166
240	0x3d8c025e	0.06836389
241	0xbd8faaa1	-0.07014967
242	0xbe2d0b35	-0.16898806
243	0x3e22b5aa	0.15889612
244	0xbe403fdc	-0.1877436
245	0xbe0254fa	-0.12727728
246	0x3e3168f7	0.17325197
247	0x3da0a6c8	0.07844311
248	0xbd2ab849	-0.041679654
249	0xbe217041	-0.15765478
250	0x3dd45be8	0.10369092
251	0x3df3f68f	0.11912262
252	0xbe0696a1	-0.13143398
253	0xbc3e8353	-0.01162799
254	0xbde01e37	-0.10943263
255	0x3e2a5186	0.16632661

conv2.bias f4 [16]
0	0xbccca1d8	-0.024979517
1	0xbe484fd5	-0.19561704
2	0xbdecdfc6	-0.11566119
3	0xbc514c97	-0.012774608
4	0xbb8787f9	-0.0041360823
5	0x3de7e7a1	0.113234766
6	0xbc3bcf07	-0.011462933
7	0xbe015ee5	-0.12633856
8	0xbe553337	-0.20820318
9	0xbe36116c	-0.17780083
10	0x3e3c9bcc	0.18418807
11	0x3d5376cf	0.051626977
12	0x3e45abef	0.19303869
13	0x3dbc2a51	0.09187759
14	0x3e505d2a	0.2034804
15	0xbdb1f19f	-0.08688664

conv3.weight f4 [32, 16, 3]
0	0xbdedb679	-0.116070695
1	0x3d9c824d	0.076420404
2	0xbca04ff0	-0.019569367
3	0xbdccc335	-0.0999817
4	0x3e02f4bf	0.12788676
5	0xbdff3fc5	-0.12463335
6	0x3c84c8ab	0.016208967
7	0xbdae44a6	-0.085091874
8	0x3d069f12	0.032866545
9	0x3e120ccd	0.14262696
10	0xbda3d656	-0.07999866
11	0xbc2135c8	-0.009839483
12	0x3e1f577a	0.15560713
13	0x3dcf3fcb	0.101195894
14	0xbda57aa2	-0.08080031
15	0x3d411a64	0.04714431
16	0xbde4d2e8	-0.1117304
17	0x3cfde8be	0.03099477
18	0xbd462daa	-0.048383392
19	0xbcf75c73	-0.03019545
20	0x3c64c790	0.013963595
21	0xbda3093e	-0.07960747
22	0xbdd7c691	-0.105359204
23	0x3bc95d89	0.0061451835
24	0xbc15d466	-0.009144878
25	0xbbe848f0	-0.007088773
26	0x3d3db512	0.04631526
27	0x3d828787	0.06373506
28	0x3e074a04	0.13211828
29	0x3dedd2b3	0.11612453
30	0x3d378266	0.044802092
31	0xbb745fff	-0.0037288663
32	0xbd859daa	-0.06524213
33	0x3e2328a4	0.15933472
34	0xbdb84a5b	-0.08998557
35	0xbd4791fe	-0.048723213
36	0x3d54dbd0	0.051967442
37	0x3de78722	0.113050714
38	0x3d08921a	0.03334246
39	0xbd5a6acd	-0.05332451
40	0x3e123099	0.14276351
41	0xbd29e345	-0.041476507
42	0xbdd68bb1	-0.10475863
43	0xbddcc2a0	-0.10779309
44	0xbdbef0e6	-0.093232915
45	0x3d1445d0	0.03619939
46	0xbd088818	-0.033332914
47	0x3d573d8d	0.052548934
48	0xbda11674	-0.07865611
49	0xbd134b0b	-0.03596024
50	0xbcc4301f	-0.023948727
51	0xbd92639b	-0.071479045
52	0xbde4de10	-0.111751676
53	0x3d5c8c86	0.05384495
54	0xbd57bcd3	-0.05267031
55	0xbd02e8fe	-0.03196048
56	0xbdf4a877	-0.119461946
57	0x3d8254dd	0.06363843
58	0x3e485b24	0.19566017
59	0xbd7aa9a1	-0.061196927
60	0xbd6235f0	-0.05522722
61	0xbc55be17	-0.013045809
62	0xbe14a31e	-0.1451535
63	0xbde7e503	-0.113229774
64	0x3b3cf77f	0.0028834043
65	0x3d33a2fe	0.043856613
66	0xbd792c4d	-0.060833264
67	0x3cde6808	0.027149215
68	0xbd1af2e4	-0.037829295
69	0x3e05d176	0.13068184
70	0xbdf8e24b	-0.12152537
71	0xbd33b146	-0.043870233
72	0xbe347a48	-0.17624772
73	0xbded2d45	-0.115809
74	0x3ce4719b	0.027886203
75	0xba0009e0	-0.0004884284
76	0xbdc0d04c	-0.094147295
77	0xbda4adf8	-0.080409944
78	0x3c73f3a4	0.014889631
79	0xbd9c696c	-0.07637295
80	0x3d40983e	0.04702019
81	0x3d70a253	0.058748554
82	0x3c9c8a77	0.019108994
83	0xbdc73b65	-0.097281255
84	0xbdb0890e	-0.08619891
85	0x3e0d3a54	0.13791782
86	0x3e0b26a1	0.13588955
87	0xbdbbae1f	-0.0916407
88	0x3da64a7a	0.08119674
89	0x3dcec069	0.10095293
90	0xbcc458a2	-0.023968045
91	0xbdda25a3	-0.1065171
92	0xbd1b2d08	-0.037884742
93	0x3d020ef7	0.031752553
94	0xbcb5b54e	-0.02218118
95	0xbd4a2d76	-0.04935976
96	0x3db48aae	0.088155136
97	0x3dc19638	0.0945248
98	0x3e128618	0.14308965
99	0x3e105b33	0.1409729
100	0x3d384b81	0.04499388
101	0x3d1a9eac	0.037748978
102	0xbcaa34bf	-0.020777104
103	0xbc72edc0	-0.014827192
104	0xbdaad54e	-0.08341466
105	0xbe3784f1	-0.17921807
106	0x3d450647	0.04810169
107	0xbdfd8c85	-0.123803176
108	0xbe030856	-0.12796149
109	0x3e0cfdb4	0.13768655
110	0xbd389c6d	-0.045071054
111	0x3cc75f8a	0.024337549
112	0xbd26c581	-0.0407157
113	0x3da868d0	0.082231164
114	0x3d431287	0.04762509
115	0xbc019c12	-0.007910745
116	0x3d92e7bc	0.07173106
117	0xbbbbf534	-0.0057360176
118	0xbdd7f24c	-0.10544261
119	0x3dc245f5	0.094859995
120	0x3cd592d4	0.02607099
121	0xbe0fb2ee	-0.140331
122	0x3db7fe5a	0.089840606
123	0x3bbe8a53	0.0058148294
124	0x3d6a3f80	0.057189465
125	0xbd9ba8e4	-0.07600573
126	0x3c816279	0.015794026
127	0x3d9e6231	0.07733572
128	0xbcda1bab	-0.026624521
129	0x3dddd844	0.10832265
130	0xbd367be4	-0.044551745
131	0xbc319141	-0.010837854
132	0xbdc0a3a1	-0.0940621
133	0xbcd611d8	-0.026131555
134	0xbe00c58b	-0.12575357
135	0x3dffeb2e	0.12496029
136	0x3d4947d7	0.049140777
137	0x3d83ed2a	0.0644172
138	0x3dfbf427	0.12302428
139	0x3da58c73	0.08083429
140	0xbe11f666	-0.1425415
141	0x3cdf9af9	0.027295576
142	0x3e09dad8	0.13462389
143	0x3d90386d	0.07042012
144	0xbb92698f	-0.00446815
145	0x3d14004a	0.03613309
146	0x3dc29325	0.09500722
147	0xbdcb1cce	-0.099176034
148	0x3e06c90b	0.1316263
149	0xbd942a8f	-0.0723468
150	0xbe087557	-0.13326012
151	0xbcc18276	-0.023621779
152	0x3dae00d1	0.084962495
153	0xbd9757df	-0.07389807
154	0x3e263479	0.16230954
155	0x3d84d729	0.06486351
156	0xbe01241f	-0.12611435
157	0xbd4fc77a	-0.050727345
158	0xbdd069d1	-0.10176433
159	0x3c9d1450	0.019174725
160	0x3e115616	0.14192995
161	0x3d7c9d6f	0.061673578
162	0x3a21270b	0.00061474805
163	0xbd1a92c6	-0.03773763
164	0xbdc0db26	-0.09416799
165	0xbe06d7fa	-0.13168326
166	0x3db47e0f	0.08813106
167	0xbcd195b0	-0.025584072
168	0xbe466f38	-0.19378364
169	0xbda99157	-0.082796745
170	0x3dbe9956	0.0930659
171	0xbd5fbe9f	-0.05462515
172	0xbdfc1b32	-0.123098746
173	0x3d830ccb	0.063989244
174	0xbd6dfc2a	-0.05810181
175	0xbd8616b3	-0.06547298
176	0xbd2a021b	-0.041505914
177	0x3dd84f9a	0.10562058
178	0xbd89a48d	-0.06720839
179	0x3e1fbbac	0.15598935
180	0xbd0584f3	-0.032597493
181	0xbc1c37ec	-0.009534817
182	0xbe1ec569	-0.15504993
183	0xbe028a02	-0.12747958
184	0xbb475b60	-0.0030419454
185	0x3c4f7ae1	0.012663574
186	0x3d42888e	0.04749351
187	0xbd8d8123	-0.069093965
188	0xbd4ffb3d	-0.05077671
189	0x3d26c369	0.0407137
190	0x3d0d13ec	0.034442827
191	0x3e050ab7	0.12992369
192	0x3dd6df2e	0.10491787
193	0xbdad4bf5	-0.08461753
194	0xbde57253	-0.11203446
195	0x3aaea2c7	0.0013323658
196	0x3e0e1df2	0.1387861
197	0x3e0ce3e8	0.13758814
198	0x3d830c51	0.063988335
199	0xbd879310	-0.06619847
200	0xbdb87904	-0.09007457
201	0x3d995ea8	0.07488757
202	0xbad1a742	-0.0015995281
203	0xbd36ae93	-0.04460008
204	0xbd091aa2	-0.033472665
205	0xbdddb0f0	-0.10824764
206	0x3d854787	0.065077834
207	0xbda2bdc8	-0.07946354
208	0x3dc6681b	0.09687825
209	0x3d0b753b	0.034047347
210	0x3df31db0	0.11870897
211	0x3d7c2471	0.06155819
212	0xbe04b7ea	-0.12960783
213	0xbe0b3680	-0.13595009
214	0x3dcee1b3	0.101016425
215	0xbe053ef0	-0.1301229
216	0xbca49d59	-0.02009456
217	0x3e08d254	0.13361484
218	0xbca28530	-0.0198389
219	0xbdf9a69c	-0.12189981
220	0x3d38b7be	0.045097105
221	0x3d121d7f	0.03567266
222	0xbcccb13c	-0.024986856
223	0xbdbe810f	-0.0930196
224	0x3d0f7af5	0.03502937
225	0xbdc56b76	-0.09639637
226	0xbd6c83b3	-0.057742786
227	0x3da85546	0.082193896
228	0x3c06dced	0.008231384
229	0x3ca8a807	0.020587934
230	0xbd62e570	-0.05539459
231	0x3d8a1cc7	0.0674377
232	0xbd84095a	-0.06447096
233	0xbe0d72d8	-0.1381334
234	0x3c00e810	0.007867828
235	0x3caa1668	0.020762637
236	0x3e178918	0.14798391
237	0xbc8ed7d6	-0.017436903
238	0x3d418c04	0.04725267
239	0x3de7294f	0.11287176
240	0xbd5c149a	-0.053730585
241	0xbd53784f	-0.051628407
242	0x3dd97c7e	0.10619448
243	0xbcb52de7	-0.022116615
244	0xbe0679ca	-0.13132396
245	0x3d71875d	0.058966983
246	0xbd254bbc	-0.04035543
247	0x3e26a9cd	0.16275711
248	0x3dee919f	0.11648869
249	0x3d02dc5b	0.03194843
250	0xbbce5c63	-0.0062976344
251	0x3a09b459	0.0005253009
252	0xbdc61396	-0.096717045
253	0x3da7980c	0.081832975
254	0xbd4f8989	-0.050668273
255	0xbdf2ae89	-0.11849696

conv3.bias f4 [32]
0	0x3c915fef	0.01774594
1	0xbd0ffbc0	-0.035152197
2	0xbe110653	-0.14162569
3	0xbdf9a0d1	-0.121888764
4	0x3d15ff1d	0.036620248
5	0x3e0674a8	0.13130438
6	0x3d198da5	0.0374886
7	0xbe1b2a65	-0.15152891
8	0xbcbe6961	-0.023243608
9	0xbdba1828	-0.09086639
10	0xbd746670	-0.059668005
11	0x3d199883	0.037498962
12	0x3c2b0ea7	0.010440505
13	0xbd67cf3f	-0.05659413
14	0xbdc90657	-0.09815662
15	0xbd2233e7	-0.03960028
16	0xbb516dcf	-0.003195632
17	0xbddbfbfd	-0.10741422
18	0x3e242273	0.16028766
19	0x3d5526e2	0.052039035
20	0xbc8cf542	-0.017206792
21	0xbd96892c	-0.07350382
22	0xbdc9f367	-0.098608784
23	0xbdcfdcac	-0.10149512
24	0xbd2c2362	-0.04202593
25	0x3d55ff2f	0.052245315
26	0x3e33e9d8	0.17569673
27	0xbe18c52e	-0.14918968
28	0x3da97aaa	0.082753494
29	0x3da57ea7	0.08080798
30	0x3da86cff	0.08223914
31	0xbcd15ea7	-0.025557829

conv4.weight f4 [64, 32, 3]
0	0x3d84ce92	0.06484713
1	0x3c41a7b8	0.011819772
2	0x3bcf3ce8	0.0063243993
3	0x3d94566c	0.07243046
4	0x3d6bd693	0.05757768
5	0xbd085c2d	-0.03329103
6	0x3daa3a5a	0.08311911
7	0xbd79ac30	-0.060955226
8	0x3d147ce7	0.03625193
9	0xbd1131d3	-0.035447907
10	0xbbfec7b9	-0.0077752736
11	0x3d1266fe	0.035742752
12	0xbc9801d6	-0.018555563
13	0x3d420eca	0.047377385
14	0xbda5c364	-0.080939084
15	0xbd3b5948	-0.045739442
16	0xbd44bef4	-0.04803367
17	0xbdc0570e	-0.09391604
18	0xbd117d98	-0.035520166
19	0xbcc23318	-0.023706004
20	0xbe0662d9	-0.13123645
21	0xbc078256	-0.008270821
22	0xbc2d69e2	-0.010584326
23	0xbd934a5f	-0.071919195
24	0xbdc67c34	-0.096916586
25	0x3dc15966	0.094408795
26	0x3d59a4a3	0.053135525
27	0xbd806c97	-0.06270712
28	0x3c0a7923	0.008451733
29	0x3d268c62	0.040661223
30	0xbd580b29	-0.05274502
31	0x3d798ed7	0.06092724
32	0x3d1c6897	0.038185682
33	0x3d815cc4	0.06316522
34	0x3d8cd3e4	0.068763524
35	0xbd0ec05d	-0.03485142
36	0x3b0aaa93	0.00211588
37	0x3d8e50d9	0.06949014
38	0x3dcc3cf6	0.09972565
39	0x3cb73066	0.022361945
40	0xbd5ac652	-0.05341179
41	0xbbc4e9b6	-0.006009306
42	0xbdc5ea07	-0.09663778
43	0x3d6a2c9e	0.057171457
44	0x3d69bf84	0.05706741
45	0xbccb1964	-0.02479238
46	0x3d81f500	0.06345558
47	0x3ddf5a16	0.109058544
48	0xbd88797f	-0.066637985
49	0x3d9124ce	0.07087098
50	0xbd83bf4d	-0.06432972
51	0xbd379e96	-0.044828974
52	0xbcaa04cc	-0.02075424
53	0xbdc5a7f5	-0.09651176
54	0x3de36063	0.11102369
55	0x3d49a23f	0.049226996
56	0xbd474070	-0.048645437
57	0xbd3ef5e4	-0.04662122
58	0xbd2082ea	-0.03918735
59	0x3cd3164a	0.025767464
60	0x3e0311ff	0.12799834
61	0x3d9e7fa5	0.0773919
62	0x3daac22d	0.08337817
63	0x3be0837c	0.0068516117
64	0x3d6a2e65	0.05717315
65	0xbcde6ef2	-0.027152512
66	0xbdd3182b	-0.10307344
67	0xbc6e3a66	-0.01454029
68	0xbdb3c0d6	-0.08777015
69	0xbd5e6029	-0.054290924
70	0x3e0300f3	0.12793331
71	0xbc9ef40d	-0.019403482
72	0xbd68d791	-0.056846205
73	0xbd97ac0a	-0.07405861
74	0xbb90d29b	-0.0044196374
75	0x3d43d487	0.047810104
76	0xbdb41864	-0.08793715
77	0x3da8d2fc	0.08243367
78	0xbdc33861	-0.09532238
79	0xbe02bc5e	-0.12767169
80	0xbc90c109	-0.017670171
81	0xbd41ea3f	-0.047342535
82	0xbd1d7bb9	-0.03844807
83	0xbccd5680	-0.02506566
84	0x3d19574c	0.03743677
85	0xbcda7479	-0.026666867
86	0x3d729e9c	0.059233293
87	0xbd96ae4e	-0.07357465
88	0xbca5af77	-0.02022527
89	0x3da5b1fb	0.08090588
90	0xbc7b8dd1	-0.015353636
91	0x3db8df26	0.09026937
92	0x3d73f56b	0.05956022
93	0xbce33834	-0.02773676
94	0xbcf30a7b	-0.029668083
95	0x3c466f92	0.012111561
96	0xbdd6e397	-0.10492628
97	0xbdb8cfac	-0.09023985
98	0xbd16b354	-0.036792114
99	0x3d280d14	0.041028097
100	0xbc7c4033	-0.015396166
101	0x3dd4dab5	0.103932776
102	0xbcb85ee0	-0.022506177
103	0x3c634622	0.013871701
104	0xbdd0d9a1	-0.101977594
105	0x3ca84aae	0.020543423
106	0x3cd3491d	0.025791699
107	0x3dd382ec	0.10327706
108	0x3d895998	0.06706542
109	0xbaed47b8	-0.0018103039
110	0xbae4a41e	-0.001744393
111	0xbbca99c7	-0.0061828825
112	0x3d74e522	0.05978883
113	0xbdbd3694	-0.092389256
114	0x3c056e9e	0.008144049
115	0xbe0b8226	-0.13623866
116	0xbcc82cb9	-0.024435388
117	0xbd1bcb92	-0.038035937
118	0xbd247db4	-0.040158942
119	0xbd414db8	-0.04719326
120	0x3d5ce86d	0.053932596
121	0x3c702111	0.014656321
122	0xbd7b6cad	-0.06138294
123	0xbddcc71b	-0.10780164
124	0x3d9f4988	0.07777697
125	0xbd9fe473	-0.07807245
126	0xbdb6da06	-0.089283034
127	0xbd1ceae4	-0.038309947
128	0xbd497480	-0.04918337
129	0x3dafabe7	0.0857771
130	0xbcfddb35	-0.030988315
131	0x3df94d93	0.12172999
132	0xbde28c73	-0.11061945
133	0xbdb60eb9	-0.08889527
134	0xbd146a15	-0.03623398
135	0xbd86da94	-0.06584659
136	0x3c83fc1a	0.016111422
137	0x3c1cc461	0.009568305
138	0x3d6fc11e	0.05853378
139	0xbddb6cae	-0.107140884
140	0x3d877382	0.06613828
141	0x3d61425d	0.05499493
142	0xbdcb81f4	-0.09936896
143	0x3da16d89	0.0788222
144	0x3de7e580	0.113230705
145	0xbd85a285	-0.06525139
146	0x3dadcb4c	0.084860414
147	0x3ce9a6f0	0.028521985
148	0xbccb9a52	-0.02485386
149	0x3dfbd1c5	0.1229587
150	0x3de5dbdc	0.112235755
151	0x3d87b6c4	0.06626657
152	0xbccd484f	-0.025058893
153	0x3dd96c4d	0.1061636
154	0x3d2a0cb7	0.041516032
155	0x3deeba78	0.1165666
156	0x3e46e2a7	0.19422399
157	0x3dcae06f	0.099060886
158	0x3dfb8971	0.12282074
159	0x3da90904	0.08253673
160	0x3cecf62e	0.028925981
161	0xbc87f8e6	-0.016598176
162	0xbbcafa15	-0.006194363
163	0xbd799afd	-0.060938824
164	0xbd442b42	-0.047892816
165	0xbb93bfc0	-0.0045089424
166	0x3e177529	0.14790787
167	0x3dccca05	0.0999947
168	0xbcf1c488	-0.029512659
169	0x3d0fd35f	0.03511369
170	0x3d8f53f4	0.06998435
171	0xbc090dc2	-0.0083650965
172	0x3e8341b7	0.25636074
173	0xbbf1f901	-0.00738442
174	0xbdc446e9	-0.095838375
175	0x3e77d170	0.24200988
176	0x3e084ff8	0.13311756
177	0xbd753412	-0.05986411
178	0x3c802956	0.01564471
179	0xbd3c608f	-0.045990523
180	0x3d772363	0.06033648
181	0xbdcf9286	-0.10135369
182	0xbccc4be4	-0.024938531
183	0xbc17d560	-0.009267181
184	0xbda13967	-0.07872277
185	0x3d8bea47	0.06831794
186	0xbd75cf81	-0.060012344
187	0x3e4729d0	0.19449544
188	0x3e378bc3	0.17924409
189	0xbd27da86	-0.040979885
190	0x3da75b79	0.08171744
191	0x3deae7a2	0.11469962
192	0x3cfb4f52	0.030677471
193	0xbbca2ca6	-0.0061698733
194	0x3c8b64f1	0.017015906
195	0xbdcd508b	-0.10025128
196	0xbced13d1	-0.028940113
197	0x3ccf0660	0.025271595
198	0xbda45d19	-0.080255695
199	0x3dac0fe0	0.084014654
200	0xbcd0b553	-0.025477087
201	0x3ceb611d	0.02873283
202	0x3c1ed553	0.009694415
203	0x3db670a1	0.08908201
204	0xbd2a4b39	-0.041575644
205	0xba624cf7	-0.00086326845
206	0xbc8e4480	-0.017366648
207	0x3c31105c	0.010807123
208	0xbd6dd1b8	-0.05806133
209	0x3dba601a	0.09100361
210	0x3e25b20b	0.16181199
211	0x3dbf689c	0.093461245
212	0x3dd30d28	0.10305244
213	0x3d05293c	0.032510027
214	0xbc883653	-0.016627466
215	0xbd9e5446	-0.07730918
216	0x3d900fe9	0.070342846
217	0xbc738d6c	-0.014865261
218	0x3d5c14fe	0.053730957
219	0xbda5838f	-0.080817334
220	0x3dc3cbc2	0.09560348
221	0xbc8004d7	-0.015627308
222	0x3ddd7461	0.10813213
223	0x3c8fbf52	0.017547283
224	0x3ddb4ad3	0.10707631
225	0xbda6c0af	-0.0814222
226	0xbdf2f9a9	-0.11864025
227	0x3c9ecea9	0.019385653
228	0xbd9f388a	-0.07774456
229	0x3d587b84	0.05285217
230	0x3cb2773f	0.021785377
231	0x3ba898f4	0.0051451866
232	0xbbe96361	-0.0071224426
233	0x3ce5ea3c	0.028065793
234	0x3db7ee47	0.08980995
235	0x3db77749	0.08958299
236	0xbd94355e	-0.072367415
237	0x3d85f08a	0.0654002
238	0x3daba841	0.08381701
239	0xbd12fba1	-0.035884503
240	0xbdb3c5c4	-0.08777955
241	0xbddd0b40	-0.107931614
242	0xbc64bbe3	-0.013960811
243	0xbd15bdcf	-0.03655797
244	0x3d699426	0.05702605
245	0xbda423a5	-0.08014611
246	0xbdb3eeac	-0.087857574
247	0xbdda6a95	-0.1066486
248	0x3b3f8911	0.0029225985
249	0x3bffe5ad	0.007809362
250	0xb9b5efef	-0.00034701775
251	0xbdcb8898	-0.099381626
252	0xbd4a4ca6	-0.049389504
253	0xbd407c70	-0.046993673
254	0x3d15a73b	0.036536437
255	0x3cd50994	0.026005544

conv4.bias f4 [64]
0	0xbb5a3777	-0.003329722
1	0x3dc35c85	0.09539131
2	0xbd56c225	-0.052431244
3	0xbd30cb56	-0.043162666
4	0xbd4ff361	-0.050769214
5	0xbb8c28d6	-0.004277329
6	0xbc7e955c	-0.01553854
7	0x3d82d10a	0.06387527
8	0x3a584a39	0.0008250806
9	0xbda7f648	-0.08201271
10	0x3b368b96	0.0027854196
11	0x3db06c05	0.08614353
12	0xbc4dbf56	-0.012557825
13	0x3cdebf09	0.027190702
14	0x3dad9cc3	0.084771655
15	0x3da714c3	0.08158257
16	0xbda9d33e	-0.082922444
17	0xbc7135e3	-0.01472232
18	0xbdb50fbb	-0.08840891
19	0xbda0a3d8	-0.07843751
20	0xbdcbba35	-0.099476255
21	0x3cdc9750	0.02692762
22	0xbdd3104f	-0.10305845
23	0xbd70b5a8	-0.05876699
24	0xbd3f4723	-0.0466987
25	0x3dc4ccbc	0.096093625
26	0xbd1ac249	-0.03778294
27	0x3dbe397d	0.09288309
28	0xbda7ce86	-0.08193688
29	0x3dcf39ec	0.101184696
30	0x3ccf6c64	0.02532024
31	0x3d771281	0.06032038
32	0xbd4d767e	-0.05016183
33	0x3d4db0b9	0.050217364
34	0x3dd87e34	0.10570946
35	0xbc2f7779	-0.010709637
36	0xbde4e53d	-0.11176536
37	0xbda09e94	-0.078427464
38	0xbcb01113	-0.021492517
39	0x3d5c47d4	0.05377944
40	0x3d21e821	0.039528016
41	0x3c06d21b	0.008228804
42	0xbceee8db	-0.029163769
43	0xbc0f968c	-0.0087639205
44	0xbcdffc0a	-0.027341861
45	0xbb9c61cc	-0.0047724005
46	0xbdbebb97	-0.09313124
47	0xbd48b327	-0.048998978
48	0xbd9bfb55	-0.07616297
49	0xbd469043	-0.048477422
50	0x3db1c9ee	0.08681093
51	0x3d4f4b69	0.050609026
52	0x3dbc6eee	0.09200846
53	0xbd920fa9	-0.07131893
54	0x3de8f4aa	0.11374791
55	0xbd5c1086	-0.053726695
56	0x3d8cd86d	0.068772174
57	0xbd724d41	-0.059155706
58	0xbbb76c2c	-0.005597612
59	0x3dd2075e	0.102553114
60	0x3dc4fef7	0.09618943
61	0x3d0c10b0	0.034195602
62	0xbd0895ce	-0.03334599
63	0x3d080252	0.033205338

conv5.weight f4 [128, 64, 3]
0	0xbd30ffe7	-0.043212797
1	0xbd5915f9	-0.05299947
2	0x3d63fd4f	0.055661496
3	0x3d435ff9	0.04769895
4	0x3cfec02f	0.0310975
5	0x3c703691	0.014661447
6	0xbd368856	-0.044563614
7	0x3d184f43	0.037184965
8	0x3cc98e6c	0.024604045
9	0xbd5397be	-0.051658385
10	0xbc561770	-0.013067111
11	0x3c0d3be1	0.008620233
12	0x3c5fbbed	0.013655645
13	0x3d08d5bc	0.033406958
14	0xbcd20249	-0.025635855
15	0xbbaa869c	-0.005204035
16	0xbd281385	-0.04103424
17	0xbde8dbf9	-0.113700815
18	0xbd30e26e	-0.04318469
19	0xbbdbc937	-0.0067073363
20	0xbcf508b7	-0.029911382
21	0xbd0ff15d	-0.03514229
22	0xbd1c395e	-0.038140647
23	0x3d0ada18	0.033899397
24	0xbd2a65ca	-0.04160098
25	0x3d8548da	0.06508036
26	0x3cd64600	0.026156425
27	0xbd9e7392	-0.07736887
28	0xbb16728e	-0.0022956464
29	0x3d17d0d2	0.03706438
30	0x3d5c9174	0.053849652
31	0x3d4272ff	0.04747295
32	0xbd8834f1	-0.06650723
33	0xbd662c6b	-0.056194704
34	0xbc05f2cd	-0.008175564
35	0x3b83b4a4	0.004019337
36	0xbd1621c7	-0.036653306
37	0x3d085f5d	0.03329407
38	0xbd2ece2c	-0.04267709
39	0xbd4b28e4	-0.049599543
40	0x3c4bffdd	0.012451139
41	0xbc9331a8	-0.017968014
42	0xbb3a6290	-0.0028440095
43	0xbd89d846	-0.06730704
44	0xbd9ca8e9	-0.076494046
45	0xbd032f09	-0.032027278
46	0xbda00bda	-0.078147605
47	0xbd5791a1	-0.052629117
48	0x3d31a826	0.04337325
49	0xbcc424ca	-0.023943324
50	0xbd1b9b35	-0.037989814
51	0x3dbc067e	0.09180926
52	0xbd1722ff	-0.03689861
53	0x3d11efe5	0.035629172
54	0xbc2c71e6	-0.010525202
55	0xbd80af9f	-0.06283497
56	0x3d20e5ad	0.039281536
57	0x3d3024f0	0.043003976
58	0x3d7ab895	0.061211187
59	0xbd89ed27	-0.06734686
60	0x3d3a0c65	0.045421977
61	0x3d477ede	0.048704974
62	0x3d52937d	0.051410187
63	0x3c65d2cf	0.0140273115
64	0x3d1d32d0	0.038378537
65	0x3d85c9a3	0.065326
66	0x3d8b03d6	0.06787841
67	0x3d80fdc8	0.06298405
68	0xbd1e3f3b	-0.03863452
69	0xbd0c3ace	-0.034235768
70	0x3d0df51f	0.034657594
71	0xbd6a0a5b	-0.057138782
72	0xbd30e38a	-0.04318575
73	0xbd285f86	-0.041106723
74	0x3d048243	0.03235079
75	0xbd3ad920	-0.045617223
76	0xbc05826d	-0.008148772
77	0x3a69ae66	0.0008914232
78	0x3d97cfae	0.07412659
79	0xbcfff75b	-0.031245878
80	0x3c882482	0.01661897
81	0xbcb7b8a7	-0.022426916
82	0xbd368ed8	-0.04456982
83	0xbda0ef53	-0.078581475
84	0xbd0f526f	-0.034990724
85	0x3d491e38	0.049101084
86	0xbccdbaf4	-0.02511356
87	0xbd552e89	-0.052046333
88	0xbc9dcf80	-0.019263983
89	0xbd1afb03	-0.03783704
90	0x3d54063d	0.05176376
91	0x3ca7f3f1	0.020502063
92	0x3db126bb	0.086499654
93	0xbd628883	-0.05530597
94	0xbd920dd4	-0.07131544
95	0xbd9dd95b	-0.07707473
96	0x3cf119ac	0.029431187
97	0x3d93a2db	0.072087966
98	0x3d647271	0.055773202
99	0x3c3139ee	0.010817034
100	0x3d312d66	0.043256186
101	0x3d4c2e90	0.049849093
102	0x3cbb9b3e	0.022901174
103	0x3d49eed3	0.049300026
104	0xbd2ab190	-0.041673243
105	0x3d857460	0.065163374
106	0xbd0688d8	-0.032845348
107	0xbd24a940	-0.040200472
108	0x3d0dd347	0.034625318
109	0x3cf4be11	0.029875787
110	0xbca5bf23	-0.020232743
111	0x3bec65f4	0.007214302
112	0xbc802131	-0.015640827
113	0xbd7803d6	-0.060550533
114	0x3befde22	0.0073201815
115	0x3cffea08	0.031239524
116	0x3c8c4ff5	0.01712797
117	0xbce2cc53	-0.02768532
118	0x38a60ee3	7.91827e-05
119	0xbbf9ddc4	-0.0076253135
120	0xbc08832d	-0.008332056
121	0xbd7d580c	-0.061851546
122	0xbd965814	-0.07341018
123	0x3d7cb657	0.06169733
124	0x3d03cb02	0.032176025
125	0x3cb7f715	0.022456685
126	0x3d80f4b8	0.062966764
127	0xbaa82663	-0.0012828823
128	0xbd0d390c	-0.034478232
129	0x3cef1d87	0.029188884
130	0x3d182fc8	0.037154943
131	0xbb3673e5	-0.0027840075
132	0xbce43446	-0.027856957
133	0x3c7f03c9	0.015564867
134	0xbd572b10	-0.052531302
135	0xbd3b154d	-0.04567461
136	0xbd6b5747	-0.05745628
137	0x3d41e4ab	0.047337215
138	0x3e29c690	0.16579652
139	0x3e257728	0.16158736
140	0x3d52acb5	0.051434238
141	0x3d039c9c	0.032131776
142	0x3d111111	0.035416666
143	0x3d0bc72b	0.03412549
144	0x3cd80d65	0.026373575
145	0x3d742253	0.059603047
146	0x3d368207	0.044557597
147	0x3d885b24	0.06658009
148	0x3d5d7897	0.05407008
149	0x3d853126	0.06503515
150	0x3d1980fa	0.037476517
151	0xbc83fa9a	-0.016110707
152	0xbd66d224	-0.05635275
153	0x3cbd4587	0.023104442
154	0xbd3bb1f4	-0.045824006
155	0xbd5b8419	-0.053592775
156	0x3d2cbe6d	0.04217379
157	0xbac38d83	-0.0014919493
158	0x3d8f70b5	0.07003919
159	0x3d1f5026	0.038894795
160	0x3c0ea711	0.008706824
161	0xbc8bb549	-0.017054217
162	0xbd35e701	-0.044409756
163	0xbd1b3b7a	-0.03789852
164	0xbae7038e	-0.0017624961
165	0xbd8da83f	-0.06916856
166	0x3d2f23d4	0.042758778
167	0xbb65aeb9	-0.003504677
168	0x3c892cd1	0.016745003
169	0x3d9bcf4d	0.07607899
170	0x3c164932	0.009172725
171	0xbdc23c80	-0.09484196
172	0xbc0ccec4	-0.008594219
173	0x3d1fb800	0.038993835
174	0xbd2fc734	-0.042914584
175	0x3d2eab8a	0.04264406
176	0x3c925a97	0.017865462
177	0xbd1b22fb	-0.037875157
178	0x3d9c78e6	0.07640247
179	0x3d584298	0.052797884
180	0xbd998b8f	-0.07497322
181	0x3d0f6438	0.035007685
182	0xba9f0855	-0.001213322
183	0xbda71ca7	-0.08159762
184	0xbd670257	-0.056398716
185	0x3d947c38	0.07250255
186	0xbd225951	-0.03963596
187	0xbca642d4	-0.020295538
188	0x3c823efd	0.015899176
189	0x3d770f3b	0.06031726
190	0x3d0064c7	0.03134611
191	0x3dae6b24	0.08516529
192	0xbd1b5f20	-0.037932515
193	0xbd6e7f63	-0.058226954
194	0x3ce5af7d	0.02803778
195	0x3cfbcead	0.0307382
196	0xbcd57784	-0.026057966
197	0xbd41db17	-0.04732808
198	0x3d4991c9	0.049211297
199	0x3b6cea8b	0.003615054
200	0xbd1de313	-0.038546633
201	0x3d726faa	0.059188522
202	0xbcfa48b4	-0.030552246
203	0x3d155404	0.036457077
204	0xbd598340	-0.053103685
205	0xbd01ba46	-0.031671785
206	0x3bfef3e4	0.007780539
207	0x3d204b14	0.0391341
208	0x3dc0a2ce	0.094060525
209	0xbce4a18c	-0.027909063
210	0xbc25af5d	-0.010112611
211	0x3d4accce	0.049511723
212	0xbca69288	-0.020333543
213	0xbc4df446	-0.012570446
214	0xbd174e8b	-0.03694014
215	0x3d12567a	0.035727
216	0xbc14e3e1	-0.009087534
217	0x3ce891f1	0.028389903
218	0x3d743e90	0.059629977
219	0x3d9126b1	0.07087458
220	0xbd073d14	-0.033017233
221	0xbc6514ac	-0.013981979
222	0x3ca86a10	0.020558387
223	0x3c180b2d	0.009280008
224	0xbc0eb6d6	-0.008710584
225	0xbb4a746d	-0.003089215
226	0xbd98843e	-0.07447098
227	0xbcdb6dde	-0.026785787
228	0x3bf2e369	0.0074123633
229	0x3d24835e	0.040164344
230	0x3d104d37	0.035229888
231	0x3c44c2f9	0.012009376
232	0xbd74a2ff	-0.059725758
233	0x3d8c0a87	0.068379454
234	0xbb179025	-0.0023126688
235	0x3d65723d	0.05601715
236	0x3c833bf2	0.016019795
237	0xbcc93257	-0.024560137
238	0xbb7465e9	-0.0037292188
239	0x3d88d2ee	0.06680857
240	0x3d77aec7	0.060469415
241	0x3d5d5e52	0.05404503
242	0x3b63e415	0.0034773399
243	0x3d31de12	0.043424673
244	0x3d8f5af7	0.06999772
245	0x3d81d442	0.06339313
246	0x3d27d1f5	0.040971715
247	0xbd7dd858	-0.0619739
248	0xbd6b4369	-0.057437334
249	0xbbdafadf	-0.006682738
250	0xbccd5128	-0.025063112
251	0xbcabbe2e	-0.020964708
252	0x3d0bed3b	0.034161787
253	0xbd503b90	-0.050838053
254	0x3d7d8240	0.061891794
255	0x3cf2606d	0.029586995

conv5.bias f4 [128]
0	0x3cb3970a	0.021922607
1	0x3b973f3e	0.0046156934
2	0xbd08afb5	-0.033370692
3	0xbc7ce77c	-0.01543605
4	0xbd9b0b88	-0.07570559
5	0xbce272c5	-0.027642617
6	0x3d5b6f51	0.053572956
7	0xbd427573	-0.04747529
8	0xbdbac885	-0.09120277
9	0xbc882c71	-0.016622754
10	0xbc081a37	-0.008307031
11	0xbcd43173	-0.025902485
12	0xbca869a7	-0.020558191
13	0x3cfb07d9	0.03064339
14	0x3b4f3cbc	0.0031621894
15	0xbc9c4e63	-0.019080346
16	0xbbbf50cf	-0.0058384906
17	0x3ce2fbb0	0.027707905
18	0xbb05013a	-0.002029492
19	0x3d00b212	0.03141982
20	0x3d2d949a	0.042378046
21	0x3daa8185	0.08325485
22	0xbcf15f9e	-0.02946454
23	0xbd4049e1	-0.046945456
24	0x3bb16c2f	0.005414508
25	0x3d7c7465	0.06163444
26	0x3b2065cc	0.0024474738
27	0x3d586301	0.052828792
28	0xbd5c9031	-0.05384845
29	0x3b953e1a	0.004554522
30	0x3c6b78ac	0.014372032
31	0x3b93be0b	0.004508739
32	0xbc45c832	-0.012071656
33	0xbc7583ad	-0.014985007
34	0x3d158f5e	0.03651368
35	0xbd62c8d5	-0.05536731
36	0xbbc53503	-0.0060182824
37	0x3ccf2644	0.025286801
38	0x3cb82d72	0.022482608
39	0x3cd600a3	0.02612335
40	0xbd2cc9df	-0.042184707
41	0x3c32f45d	0.010922519
42	0x3c9efffa	0.019409169
43	0x3cb061cf	0.021531014
44	0x3cbdc905	0.023167143
45	0x3cde98a8	0.027172402
46	0x3a915e37	0.00110907
47	0xbd67b758	-0.056571335
48	0xbd8cfcc1	-0.068841465
49	0x3c0f8138	0.0087588355
50	0x3be1bdff	0.0068891044
51	0x3d28d7dc	0.041221485
52	0x3c50585f	0.012716382
53	0xbda18da9	-0.07888348
54	0x3ca843c6	0.02054013
55	0x3d2fd475	0.042927224
56	0xbccef72b	-0.025264343
57	0xbcb26c3a	-0.021780122
58	0x3bbc24ad	0.005741677
59	0x3d46af74	0.04850717
60	0x3dbf2112	0.093324795
61	0x3c507094	0.012722153
62	0xbd0bb334	-0.03410645
63	0x3daea596	0.08527677
64	0xbbdabdc8	-0.0066754557
65	0xbb99fabd	-0.00469908
66	0x3d2c1c1e	0.042019002
67	0x3c08eb68	0.0083569065
68	0xbcc67a41	-0.024228217
69	0x3daa510c	0.0831624
70	0x3ca038a9	0.019558268
71	0xbc264ad8	-0.01014968
72	0x3d670c29	0.05640808
73	0x3d7b1c52	0.061306305
74	0xbbfddec3	-0.0077475025
75	0x3d13f827	0.03612533
76	0xbd480625	-0.048833985
77	0x3d9507a2	0.072768465
78	0xbdb378bb	-0.08763262
79	0x3d491335	0.049090583
80	0xbdae23a6	-0.08502893
81	0xbd6c56f6	-0.05770012
82	0xbd8aef30	-0.06783903
83	0xbcaa6e75	-0.020804623
84	0x3d9120e8	0.070863545
85	0xbd2aa59e	-0.04166185
86	0xbd75c12f	-0.059998687
87	0x3d6c3ed2	0.057677098
88	0xbd2fb392	-0.04289586
89	0x3d5efc7e	0.054440014
90	0xbd835990	-0.06413567
91	0x3b550cad	0.0032508776
92	0x3d0ad7db	0.033897262
93	0xbd60eedf	-0.054915305
94	0xba4b13bc	-0.0007746776
95	0x3b2ef120	0.0026694015
96	0xbd136674	-0.03598638
97	0x3c9ec89a	0.019382764
98	0x3c3b95dc	0.0114493035
99	0xbdbd8d3a	-0.092554525
100	0xbcade5c4	-0.021227725
101	0x3c526715	0.0128419595
102	0x3c5a1238	0.013310008
103	0x3ae220cc	0.0017252206
104	0xbc990f2b	-0.01868399
105	0xbd143c0a	-0.03619007
106	0xbc97a70a	-0.018512268
107	0x3ba40b2b	0.005006214
108	0xbc1185b5	-0.008881976
109	0xbd885d5c	-0.06658432
110	0x3d8734b1	0.06601847
111	0xbcecd888	-0.028911844
112	0x3ad90066	0.0016555905
113	0x3cc47afa	0.023984421
114	0xbbb30ec9	-0.005464409
115	0xbc8086dd	-0.015689308
116	0x3cb28ce0	0.02179569
117	0xbd71d50c	-0.059041068
118	0xbc3c433d	-0.01149064
119	0x3d9780f7	0.07397645
120	0x3d5241f4	0.05133243
121	0x3c35fa83	0.01110709
122	0x3d3740eb	0.044739645
123	0x3d3873f5	0.04503246
124	0xbd2422d9	-0.040072296
125	0xbd66e8db	-0.056374412
126	0x3c6490bc	0.013950523
127	0xbd89d92d	-0.06730876

conv6.weight f4 [256, 128, 3]
0	0x3d0fbabf	0.035090204
1	0x3cfb2258	0.030656025
2	0x3c92f384	0.017938383
3	0xbd85aba1	-0.06526876
4	0x3c0ade69	0.008475878
5	0xbd436ce1	-0.047711257
6	0x3d03c985	0.032174606
7	0xbcbb9e82	-0.02290273
8	0x3d3db8a9	0.046318684
9	0x3d0569cc	0.0325716
10	0xbd18bd23	-0.03728975
11	0xbd2e22e9	-0.04251376
12	0x3c8a8bb8	0.016912326
13	0xbd2f2c25	-0.04276671
14	0x3c8de004	0.017318733
15	0x3c8c51cc	0.017128848
16	0x3d5be499	0.053684805
17	0x3c0bbbc7	0.008528656
18	0x3c62b838	0.0138378665
19	0x3c94fa9d	0.018185908
20	0x3db3c745	0.08778242
21	0xbd26ff48	-0.0407708
22	0x3b958be8	0.0045637973
23	0xbd5b27bc	-0.05350469
24	0x3d1d85e6	0.038457774
25	0x3d586849	0.05283383
26	0x3d6ee055	0.05831941
27	0xbce44051	-0.0278627
28	0xbd32787b	-0.04357193
29	0xbd452442	-0.04813028
30	0x3ddb9980	0.10722637
31	0x3dc7c3b8	0.09754127
32	0x3dfc2380	0.123114586
33	0xbd2250f5	-0.039627988
34	0x3d59f17a	0.053208806
35	0xbc939a9f	-0.018018065
36	0x3d16c6c6	0.03681066
37	0x3cfb70c2	0.030693416
38	0xbcc3535c	-0.02384346
39	0xbd02f309	-0.031970058
40	0xbd514e07	-0.051099803
41	0xbd8a55ac	-0.06754622
42	0x3d32b81c	0.04363261
43	0x3d5806b2	0.05274076
44	0x3e1e8240	0.15479374
45	0xbd5bd3b3	-0.05366869
46	0xbd08aee9	-0.033369932
47	0x3ba7aced	0.00511705
48	0x3c8779eb	0.016537627
49	0x3b885a4a	0.004161154
50	0x3cae50d9	0.021278786
51	0xbc0c7532	-0.008572863
52	0xbd3e9674	-0.046530202
53	0x3c68d2b1	0.014210389
54	0x3d80a3e8	0.06281263
55	0x3cdd6f2f	0.027030556
56	0x3d43ecc0	0.047833204
57	0xbcd08652	-0.025454674
58	0xbd17a5e3	-0.037023436
59	0xbc85f71a	-0.016353179
60	0xbc8c68bf	-0.01713979
61	0xbb7ff631	-0.0039056654
62	0xbcce2c17	-0.025167508
63	0xbd588fb8	-0.052871436
64	0x3cc0fe25	0.023558686
65	0xbca39824	-0.019970007
66	0x3d8a3546	0.06748442
67	0x3cab58f8	0.020916447
68	0xbc99ec9b	-0.01878958
69	0x3d780d5a	0.060559608
70	0x3ca63fbb	0.02029406
71	0xbc9be3fa	-0.019029606
72	0x3c461755	0.012090524
73	0x3c8afbbf	0.016965745
74	0xbcbf10b6	-0.023323398
75	0x3d061776	0.032737218
76	0x3c2a3d9b	0.010390664
77	0xbc8b09e5	-0.016972492
78	0x3ca480fc	0.020081036
79	0xbd570711	-0.052496973
80	0x3cc4b76e	0.024013247
81	0x3db58927	0.0886405
82	0x3d5f1160	0.05445993
83	0x3d28e7d7	0.041236725
84	0xbc726cf4	-0.014796484
85	0xbca8e168	-0.020615295
86	0xbd8af51d	-0.06785033
87	0xbdfecd19	-0.12441463
88	0xbdb7ef73	-0.08981218
89	0xbd222279	-0.039583657
90	0xbd71db15	-0.059046824
91	0xbd0f93f2	-0.0350532
92	0xbd651f33	-0.055937957
93	0xbd3ca790	-0.046058238
94	0xbdc1db86	-0.09465699
95	0xbdfd57ba	-0.12370248
96	0xbc8d3b34	-0.017240144
97	0xbdb69ec2	-0.089169994
98	0xbd768519	-0.060185526
99	0xbd192a07	-0.037393596
100	0x3a7e58d9	0.00097025704
101	0x3c8f36ce	0.017482188
102	0x3d856b76	0.06514637
103	0x3cb89994	0.02253417
104	0x3d85750f	0.06516468
105	0xbd1c19d6	-0.038110577
106	0xbcbc1906	-0.02296115
107	0x3c49f775	0.012327065
108	0x3d9a7179	0.075411744
109	0x3d7bcfca	0.06147746
110	0x3e105449	0.14094652
111	0xbd7baace	-0.06144219
112	0xbcb772cc	-0.022393607
113	0x3d1346cb	0.035956185
114	0xbb318da7	-0.0027092488
115	0x3c7181a4	0.014740381
116	0x3d1fcbd9	0.039012764
117	0xbd6b541c	-0.05745326
118	0x3cecabfe	0.028890606
119	0xbd02fbd4	-0.031978443
120	0xbda175fe	-0.07883833
121	0xbd237dc8	-0.039914876
122	0xbdbf38a6	-0.09336977
123	0x39fd9132	0.000483641
124	0x3dac73ea	0.08420546
125	0x3da40dfc	0.0801048
126	0x3d8a4ea8	0.06753284
127	0xbbdd44fe	-0.0067526093
128	0x3bebeb31	0.007199668
129	0xbd9a935e	-0.07547639
130	0xbd798035	-0.060913283
131	0xbd80b1a1	-0.0628388
132	0xbd54c900	-0.0519495
133	0x3c393284	0.011303548
134	0x3b3c6422	0.0028746207
135	0xbd4533d0	-0.048145115
136	0xbd599e64	-0.05312957
137	0x3c3b36ce	0.011426641
138	0xbc4e9333	-0.012608337
139	0xbd391abb	-0.045191508
140	0xbd0e5a2c	-0.034753963
141	0x3d79d53c	0.06099437
142	0xbc997da5	-0.01873667
143	0x3d6b603b	0.05746482
144	0xbd11bf8f	-0.035583075
145	0xbc298ff3	-0.010349262
146	0xbcb329fb	-0.021870604
147	0xbd1d02f7	-0.038332906
148	0xbd1a597d	-0.037683
149	0xbd8ccab2	-0.068745986
150	0xbd218473	-0.039432954
151	0x3b162769	0.0022911674
152	0xbd1aaf75	-0.037764985
153	0xbd930631	-0.07178915
154	0xbd1496ee	-0.03627675
155	0xbd322629	-0.043493424
156	0xbd1936e6	-0.03740587
157	0x3d28f032	0.041244693
158	0xbcfccf71	-0.030860635
159	0x3cc2f426	0.02379806
160	0x3d0d9f1d	0.03457557
161	0xbd7ece90	-0.062208712
162	0x3b6e6b54	0.003637989
163	0x3b803faa	0.0039138393
164	0x3cd9c975	0.02658532
165	0xbd1d68dd	-0.038430084
166	0x3c942c60	0.018087566
167	0xbcdfc3c4	-0.027315028
168	0x3d4401d6	0.047853313
169	0x3d968a58	0.07350606
170	0x3cf1a280	0.029496431
171	0xbd28526c	-0.04109423
172	0xbd375333	-0.04475708
173	0xbd3ca396	-0.046054445
174	0xbd748dfb	-0.059705716
175	0xbd45a6de	-0.04825484
176	0x3d2ba327	0.04190364
177	0x3be64df9	0.007028338
178	0x3d02b5f9	0.031911824
179	0xbd1554b7	-0.036457743
180	0xbd656654	-0.05600579
181	0xbcbd711a	-0.02312522
182	0xbd1c743a	-0.03819678
183	0xbd732df0	-0.05936998
184	0xbd878f9d	-0.06619189
185	0xbda3bed7	-0.07995384
186	0xbd5896af	-0.052878078
187	0x3bb5641c	0.0055356156
188	0xbd0ae087	-0.033905532
189	0xbd8bb167	-0.06820946
190	0xbd653994	-0.055963114
191	0xbca56f71	-0.020194741
192	0x3dbc7727	0.09202414
193	0x3d5f9881	0.0545888
194	0x3e0ac762	0.13552621
195	0xbc2f0618	-0.010682605
196	0x3c03f1b5	0.008053233
197	0xbd2ac5ba	-0.041692473
198	0x39cdc4aa	0.00039247173
199	0x3d3be590	0.045873225
200	0xbb945357	-0.0045265364
201	0xbdb6f8c7	-0.08934169
202	0xbca3e1db	-0.020005157
203	0xbd092f5b	-0.033492427
204	0x3d21bf4e	0.039489083
205	0xbb5412c4	-0.0032359818
206	0x3c703a09	0.014662274
207	0xbc5a9fe1	-0.013343782
208	0xbd2110cc	-0.03932266
209	0xbc953698	-0.018214509
210	0x3d644de4	0.055738345
211	0xbabede06	-0.0014562018
212	0x3d1f1cb6	0.03884574
213	0xbc74d2d0	-0.01494284
214	0x3cff4daa	0.031164963
215	0x3c52c648	0.012864657
216	0xbb5c3f9e	-0.0033607255
217	0x3c0e53f7	0.008687011
218	0xbda3f212	-0.080051556
219	0xbdb82306	-0.08991055
220	0xbccc1759	-0.024913477
221	0xbdbec407	-0.09314733
222	0xbd0fc547	-0.035100248
223	0xbdc10ed8	-0.09426659
224	0xbd474ae2	-0.0486554
225	0xbd111a51	-0.035425488
226	0xbc5235d3	-0.0128302155
227	0x3c050c4f	0.00812061
228	0x3dba5cc1	0.09099723
229	0x3d42f3ba	0.047595717
230	0x3d7cf277	0.06175467
231	0xbdb5a1eb	-0.08868774
232	0xbda3cf75	-0.07998554
233	0xbd96d344	-0.073645145
234	0x3d87b94a	0.06627138
235	0xbc945d68	-0.018110946
236	0x3bf64f68	0.00751679
237	0x3da5c2cc	0.08093795
238	0x3d9a263f	0.07526826
239	0x3e0fb497	0.14033733
240	0x3cf8572b	0.030315002
241	0x3d610c2b	0.054943245
242	0xbc9158a4	-0.017742462
243	0xbd0ef232	-0.034898944
244	0x3d2f7808	0.04283908
245	0x3d17fb33	0.037104797
246	0xbd8ac3c5	-0.06775621
247	0xbccd3015	-0.025047341
248	0x3bb088e2	0.0053874115
249	0x3db4ef05	0.08834652
250	0x3cba0e0a	0.022711772
251	0x3cb43e7d	0.022002453
252	0x3db10511	0.086435445
253	0x3cfce28f	0.03086975
254	0x3dddee8d	0.108365156
255	0x3d4d3d9b	0.05010758

conv6.bias f4 [256]
0	0x3a7cd74e	0.000964512
1	0x3dab66b4	0.083691984
2	0x3a23e6e5	0.00062523625
3	0xbcdbfbf3	-0.026853537
4	0xbd31611d	-0.043305505
5	0xbb759167	-0.00374707
6	0xbcfe7d6b	-0.031065663
7	0xbd832370	-0.064032435
8	0xbc31276b	-0.010812621
9	0x3b0114ac	0.001969616
10	0x3af4c226	0.0018673583
11	0xbab32f52	-0.0013670719
12	0x3bd2807f	0.0064240093
13	0xbb8d8579	-0.0043188897
14	0xbd56b902	-0.05242253
15	0x3b8f47dd	0.0043725804
16	0xbc45ed2d	-0.012080473
17	0x3cb6da70	0.022320956
18	0xbd43f101	-0.04783726
19	0xbca4f564	-0.020136543
20	0x3d2a57b2	0.04158754
21	0xbd0a70d2	-0.033799
22	0xbd6e1e66	-0.05813446
23	0xbd372ed5	-0.044722397
24	0xbd0ec87f	-0.034859177
25	0x3c3c3ecf	0.011489584
26	0xbd35bf19	-0.044371698
27	0xbc5d9b49	-0.013525792
28	0xbd44863b	-0.047979575
29	0xbd6258c2	-0.055260427
30	0x3c90966f	0.017649857
31	0xbd35efb3	-0.044418048
32	0xbd4cf24b	-0.050035756
33	0xbad93187	-0.0016570546
34	0x3c391c59	0.0112982625
35	0x3d8ade94	0.06780735
36	0xbcc14519	-0.023592519
37	0xbb47c5b3	-0.0030482828
38	0x3b8e617c	0.004345117
39	0x3d810aad	0.06300864
40	0xbd724b0b	-0.059153598
41	0xbc4a6934	-0.012354184
42	0x3ccaf8f8	0.02477692
43	0x3c415771	0.011800633
44	0xbda4b247	-0.08041816
45	0x3ccfebd1	0.025381
46	0x3d510667	0.051031496
47	0x3c267a01	0.010160924
48	0x3d469b2b	0.048487823
49	0x3ab6ad1e	0.0013937091
50	0xbc618048	-0.013763495
51	0xbc11643a	-0.0088739935
52	0x3d1242d9	0.035708282
53	0xbd35f5cc	-0.044423863
54	0xbd95c3db	-0.07312747
55	0xbd104c52	-0.035229035
56	0xbd6e09f4	-0.05811496
57	0xbd704e68	-0.058668524
58	0x3d1cdfbf	0.03829932
59	0x3d05358a	0.032521762
60	0xbd449cc2	-0.04800106
61	0x3c34124d	0.010990691
62	0xbca57f45	-0.020202288
63	0x3cc47c98	0.023985192
64	0x3ab33dd9	0.0013675048
65	0x3ccbe45a	0.02488916
66	0xbd6516fc	-0.055930123
67	0xbd545aac	-0.051844284
68	0x3d0b6e34	0.034040645
69	0x3b992174	0.0046731774
70	0x3cf3014f	0.02966371
71	0x3b88ef57	0.004178922
72	0xbd8e972c	-0.069624275
73	0xbd153290	-0.036425173
74	0x3c3b651e	0.011437682
75	0xbcab7ae2	-0.020932619
76	0xbbb7bfc4	-0.005607577
77	0xbd2911a1	-0.041276578
78	0x3d4b2f85	0.049605865
79	0xbccf5e0f	-0.025313405
80	0x3d5c1f00	0.0537405
81	0xbd0070b8	-0.031357497
82	0x3ca2d7e4	0.019878335
83	0xbd382ed7	-0.044966545
84	0xbd09f662	-0.033682235
85	0xbbb2f755	-0.005461613
86	0x3d086269	0.033296976
87	0xbc8ac286	-0.01693846
88	0xbcf129e9	-0.02943893
89	0xbc14f15f	-0.0090907505
90	0x3baeceb3	0.005334699
91	0xbcb3d4a8	-0.021951988
92	0x3c9ceb49	0.019155161
93	0xbd02adc9	-0.031904016
94	0x3cbe55dd	0.023234302
95	0xbb750223	-0.0037385307
96	0xbbfb6925	-0.0076724463
97	0xbd5697b6	-0.052390777
98	0xbb60ed37	-0.0034321079
99	0x3c838a48	0.016057149
100	0xbd767d8a	-0.060178317
101	0x3cb5c37d	0.022187943
102	0x3ccffd86	0.025389444
103	0xbcc30c9b	-0.023809722
104	0xbbb004e6	-0.0053716777
105	0x3cd1951b	0.025583794
106	0xbd850929	-0.06495888
107	0x3d1eb9a2	0.038751252
108	0x3c9531f4	0.018212296
109	0xbc8c2951	-0.017109545
110	0xbc62ed5d	-0.013850537
111	0xbd876675	-0.06611339
112	0xbd0fd8b8	-0.03511879
113	0x3c384ae3	0.011248323
114	0xbc1d2520	-0.009591371
115	0xbcec9571	-0.028879853
116	0x3c8616c5	0.01636828
117	0xbce08d46	-0.027411114
118	0x3be4df73	0.006984645
119	0xbd63cf3e	-0.055617563
120	0xbd368000	-0.044555664
121	0x3c408e07	0.011752612
122	0xbd4271ba	-0.04747174
123	0x3d63680d	0.055519152
124	0x3c47020c	0.012146484
125	0x3ca0dd26	0.019636702
126	0xbcac57eb	-0.021038016
127	0x3d2bd18f	0.041947898
128	0xbca45be3	-0.020063346
129	0x3cc01bce	0.023450758
130	0x3bfe8f29	0.007768531
131	0x3d4e1550	0.050313294
132	0xbce7767f	-0.028254746
133	0xbc797d20	-0.015227586
134	0x3b2a2cda	0.0025966675
135	0xbd661ee6	-0.05618181
136	0x3c384d3f	0.011248886
137	0x3d2a4f35	0.041579444
138	0x3d51fc84	0.05126621
139	0x3b9f015b	0.0048524565
140	0xbab34fbd	-0.001368038
141	0xbd189ea6	-0.037260674
142	0xbc94d3ab	-0.018167337
143	0xbd212bb8	-0.039348334
144	0xbbf31850	-0.0074186698
145	0xbd326d4c	-0.043561265
146	0xbc5f2634	-0.013619948
147	0xbc9f0c27	-0.019414974
148	0x3d1ba300	0.037997246
149	0x3bb8dca0	0.005641535
150	0x3d8c3063	0.068451665
151	0xbceba2c4	-0.028764136
152	0xbd0b8806	-0.03406527
153	0xbcd738e4	-0.026272245
154	0xbcde2044	-0.027114995
155	0x3c9bef9a	0.01903515
156	0xbd63a962	-0.055581458
157	0xbc477bf5	-0.01217555
158	0xbd03b15e	-0.032151572
159	0x3d3dbfc8	0.046325475
160	0x3d999bef	0.07500445
161	0x3d8bc727	0.06825095
162	0xbc4368c3	-0.011926833
163	0x3c2b14d2	0.010441976
164	0xbd1fe1b8	-0.03903362
165	0xbd6fb045	-0.058517713
166	0x3d6c4928	0.057686955
167	0x3d65b420	0.056079984
168	0x3b7b3d0b	0.0038335945
169	0x3d2753cd	0.040851403
170	0xbd6fad94	-0.058515146
171	0xbc2ef2cf	-0.010678007
172	0xbd336413	-0.04379661
173	0x3d37dc20	0.044887662
174	0x3cb20aad	0.021733606
175	0x3da13621	0.078716524
176	0x3c89b3f9	0.01680945
177	0x3ca2b263	0.019860452
178	0x3d039fca	0.03213481
179	0xbc97bd55	-0.018522898
180	0x3c15478f	0.009111299
181	0xbb042da8	-0.0020168815
182	0xbcee76e3	-0.029109424
183	0xbc78a17d	-0.015175221
184	0x3ccd6755	0.025073687
185	0xbcba0882	-0.022709135
186	0xbd24b778	-0.040214032
187	0xb9c02193	-0.00036646108
188	0x3d08f90a	0.033440627
189	0xbcacde3c	-0.021102063
190	0xbc24ad90	-0.010051146
191	0xbcea3f6a	-0.028594691
192	0x3cdc4c8a	0.026891965
193	0x3c237354	0.009976227
194	0x3ac10381	0.0014725776
195	0x3ceb9ea8	0.028762177
196	0xbc748a0f	-0.014925494
197	0x3c5f5337	0.01363068
198	0x3c9cbea5	0.019133875
199	0x3c84e929	0.01622446
200	0x3c93487c	0.0179789
201	0xbc4a2063	-0.012336823
202	0x3d356c4b	0.04429273
203	0xbcf10efc	-0.02942609
204	0x3cb65e48	0.022261754
205	0xbccc152e	-0.024912443
206	0xbc887fa0	-0.016662419
207	0xbd4df88d	-0.050285865
208	0xbbbb3015	-0.005712519
209	0x3b556d8c	0.0032566516
210	0xbcdb23ee	-0.026750531
211	0x3cc0bb96	0.023526948
212	0x3a0a5807	0.00052773993
213	0x3b824c83	0.003976406
214	0x3c0f1c2d	0.008734745
215	0xbd0c342f	-0.034229454
216	0x3d1b9587	0.037984397
217	0xbc6383a3	-0.013886365
218	0xbc1da869	-0.009622672
219	0xbd5de296	-0.054171167
220	0x3cd0f6fa	0.025508393
221	0xbd1a2573	-0.03763337
222	0x3d540c55	0.051769573
223	0x3ccafb39	0.024777995
224	0xbcf84e88	-0.030310884
225	0x3d42e510	0.047581732
226	0xbcddea93	-0.027089393
227	0x3c0f894d	0.008760762
228	0x3d30e6d1	0.043188874
229	0x3d0a4a4a	0.033762254
230	0xbcbcb0c0	-0.0230335
231	0xbd7a3fdc	-0.061096057
232	0x3cce017c	0.025147192
233	0x3d2574e0	0.040394664
234	0xbd7a575f	-0.06111848
235	0x3cf33d49	0.029692309
236	0xbbf3be87	-0.007438484
237	0xbd74a663	-0.05972899
238	0x3cadd6f3	0.02122066
239	0x3c0c36f5	0.008558025
240	0xbca5af5d	-0.020225221
241	0xbcdef264	-0.02721519
242	0x3c7e9aa6	0.015539801
243	0xbc7f3299	-0.015576028
244	0xbd4a93fd	-0.04945754
245	0x3d030cc0	0.03199458
246	0xbd42c77d	-0.047553528
247	0xbcc4810d	-0.023987317
248	0xbd353477	-0.044239487
249	0x3d16db64	0.03683032
250	0xbccae362	-0.024766628
251	0x39292465	0.00016130654
252	0xbd5df1bb	-0.05418561
253	0xbd399fa6	-0.04531827
254	0xbd2a12ec	-0.04152195
255	0xbd69eb8b	-0.057109397
