research/pulse/work/data/20210319_224037/model_G_10000.pth (torch, 301903 bytes, 19 tensors)

conv1.weight f4 [8, 1, 3]
00000000: 4250 983e 0e79 82be 7439 e5bd 3cbf 8a3e
00000010: 5c25 0bbf 4647 b13e 9c40 f3bd ea62 963e
00000020: 2060 a43d 90c7 90bd 44fa 233e 8052 e93c
00000030: e4ec 573e d264 66be a06a 2cbd 20e6 54bd
00000040: 3862 ab3d 0027 17bb 0c34 013f 48fa 373e
00000050: 482b 5cbe 7288 b2be e430 c6bd f202 7fbe
0.29748732 -0.25482982 -0.11192599 0.27099025 -0.5435388 0.3462469 -0.11877558 0.2937234
0.08026147 -0.070693135 0.16013438 0.028481722 0.2108646 -0.22499397 -0.042093873 -0.051977277
0.08368343 -0.0023064017 0.5047004 0.17966568 -0.21500885 -0.34869725 -0.09677294 -0.24903467

conv1.bias f4 [8]
00000000: 8873 3dbe a076 e23c a437 b03e d6ab a03e
00000010: d07b 10bf 2440 b73e 6c29 253e b632 0c3f
-0.18501103 0.027644455 0.3441745 0.313811 -0.5643892 0.35791123 0.16129082 0.5476488

conv2.weight f4 [16, 8, 3]
00000000: c0f7 093e e872 3ebe afbd 46be 1ba3 c9bd
00000010: b08b 373e 6044 0bbd 28e8 b23d 5845 c2bd
00000020: e618 4d3e eedf b0bd 6ac0 1c3e 4069 1e3b
00000030: ec3b dcbd c8e1 d63d 4ae8 ddbd 10e6 753d
00000040: 806d 71bd 3854 b7bc cef3 48be 1b51 c7bd
00000050: 9cd8 e23d 303c 4bbd 8832 503e ee8c 273e
00000060: 7098 1cbc f884 0bbe 0893 fe3d 60be 813d
00000070: df1d 07be 14c5 073e f0cb fd3d ae61 393e
00000080: 0157 eabd 38a0 09bd c092 81bb 303c f43c
00000090: a8a1 1ebe d653 14be 486b e33d 940e 44bd
000000a0: 5834 cc3d 90a9 3e3c 6843 893d e8d8 373d
000000b0: 5c00 983d e43a cf3d 2f94 41be 986c d23d
000000c0: 12f8 12be b7b5 1dbe c062 4b3c e879 0ebd
000000d0: 5487 f53d 021b f2bd 5bd1 39be da1e 183e
000000e0: 60f4 f7bc 1422 eb3d 3c65 863d c5bd 1cbe
000000f0: 34f8 273d 98d3 483d 08f4 0bbe f359 c6bd
00000100: 288b 8e3d 58c3 153d 4fd3 b1bd 3819 7dbd
00000110: d070 3f3e e4b1 1abd e4b0 eb3d f003 b53d
00000120: 321d 07be 6bc2 31be 92a3 483e d0a1 2e3c
00000130: ce46 0f3e c043 2d3d 0474 863d b221 1c3e
00000140: e432 463e 2bb4 0abe 5012 d13c 2cfc 1b3e
00000150: 786c 173e 6cda 013e 2446 17be b884 16be
00000160: 90d2 fcbd e812 d23c 7653 503e ea08 04be
00000170: d4c4 de3d 3762 e7bd de86 44be ecb3 31bd
00000180: b8dd f03d 440d 423e bdcf 01be 0471 353d
00000190: 965b 343e 8a82 0a3e 9e44 023e e489 143e
000001a0: e635 043e b0f5 573d 2aef 0ebe 6a87 2fbe
000001b0: b28e bfbd 18b8 c2bc 061f 00be 9cf1 983d
000001c0: 5861 813d 2452 3dbd 18ac a03d 2c1b 873d
000001d0: c83b ff3d ecc3 0c3e 9092 8dbd 9038 4c3e
000001e0: 4851 c1bc 60cc e5bb f34a 45be da87 06be
000001f0: 5e39 f4bd d7ce b2bd ee9b 143e 0e9c 88bd
00000200: f532 1cbe e0d7 a03d 80d8 853d e061 073e
00000210: ca53 d8bd 0447 353d a430 98bd 4cd9 3bbd
00000220: 0a93 26be 7787 bebd a807 80bd 78c5 b23d
00000230: c8be 183d 5087 4e3d 88a0 503e 3eb8 4b3e
00000240: 4a90 0e3e 40fe d43b b499 10be 865a 233e
00000250: 8013 51bd 3830 87bc be12 34be f426 25bd
00000260: 40d1 06be 9612 403e 74b4 34be 0fee 22be
00000270: 0020 e3bb 490b e2bd f494 953d aeea a0bd
00000280: e459 c4bd d06a 3d3c b84f 173e 2608 13be
00000290: 3051 c43d fe48 063e 4277 4c3e 404d 12be
000002a0: 407e 4a3d ac8e 1abe 1c74 323e ac29 a2bd
000002b0: b4cf fb3d 2022 c73b f83b 82bc 406c d5bb
000002c0: 9021 0e3d bc10 c53d a817 063d d80d 7f3d
000002d0: 7f05 3cbe fc47 183e 603d 363e 9cc7 2c3e
000002e0: be83 1a3e 71d6 16be 42f8 9abd 0e4d 383e
000002f0: 4a34 1fbe 56a1 3d3e 5865 24be d83c 13be
00000300: a45f cc3d 4b2e 16be a48c 3fbd 0810 183e
00000310: 9e90 253e 50af 453e 64a8 29bd 2a77 22be
00000320: 74ce 4d3e 0c1c 32bd b9ff abbd 48d1 4b3d
00000330: cc2c 12be 0463 093e 6c00 033e 1edb 25be
00000340: 92af 2bbe 387a 92bc 1097 af3d 60b8 c1bb
00000350: 5dfb d3bd c0eb 983b b377 44be baba 13be
00000360: fc24 0bbe 0a23 2c3e 5041 383e 14ff 8dbd
00000370: 00ff 153c 7c70 ba3d 585b c83c 7656 d1bd
00000380: 741a f13d 607e 003e 20d3 41bc a8d9 cdbc
00000390: e2f2 3d3e 90b6 363e ec05 edbd 7281 4c3e
000003a0: f0e8 4e3d 8cd8 0abe 00d8 e43d 250d 1cbe
000003b0: 5a1f 413e 6a60 06be 6878 6c3d 2097 7e3d
000003c0: 08df 463d 525e 2d3e a3a2 adbd 997c b0bd
000003d0: 2b22 35be 8040 09bc 8009 c6bd a001 063c
000003e0: d065 2bbd 80b4 8a3d 2ad2 343e 70b6 763d
000003f0: 66ab 86bd 3b22 cdbd d74c 36be c2e1 2f3e
0.13473415 -0.18598521 -0.19408296 -0.09845563 0.1792438 -0.034000754 0.087356865 -0.094858825
0.20029029 -0.08636461 0.15307775 0.002417162 -0.10753617 0.10492283 -0.10835321 0.060033858
-0.058942318 -0.022379026 -0.19624254 -0.097322665 0.11076471 -0.049617946 0.20331776 0.16362354
-0.009557828 -0.13624942 0.12430388 0.06335139 -0.13194989 0.13258773 0.123924136 0.18103668
-0.11442376 -0.033600062 -0.0039542615 0.029813856 -0.15491354 -0.14485106 0.11104447 -0.047865465
0.09970921 0.011637107 0.0670231 0.044884592 0.074219435 0.10118654 -0.18904184 0.10274619
-0.14352444 -0.1540135 0.012413681 -0.034784228 0.119887024 -0.118215576 -0.18146269 0.14855519
-0.030267894 0.11481109 0.06562278 -0.15306766 0.04100819 0.049029917 -0.1366731 -0.09685125
0.06960136 0.036563247 -0.08682882 -0.06179163 0.18695378 -0.037767306 0.115083486 0.08838642
-0.13194731 -0.17359321 0.19593647 0.010658696 0.13991854 0.04230094 0.06565097 0.15247229
0.1935535 -0.13545291 0.025521427 0.15232915 0.14787471 0.12680978 -0.1477285 -0.14699066
-0.12344849 0.02564378 0.20344338 -0.12894025 0.10877386 -0.1129803 -0.19192073 -0.043384477
0.117610395 0.18950373 -0.12676902 0.044297233 0.17613062 0.13526359 0.12721488 0.14505726
0.12911186 0.05272454 -0.13958421 -0.171415 -0.09353389 -0.023769423 -0.12511835 0.07467958
0.06317395 -0.046220914 0.07845324 0.065969795 0.12462574 0.13746613 -0.0691272 0.19943452
-0.023598328 -0.007012889 -0.19266872 -0.13137761 -0.119250044 -0.08730858 0.14512607 -0.0667039
-0.15253814 0.07853675 0.06535435 0.1322093 -0.105628565 0.04425718 -0.074311525 -0.045861527
-0.16267028 -0.093031816 -0.0625146 0.087290704 0.03729132 0.050422013 0.20373738 0.19894502
0.1392223 0.0065000355 -0.14121133 0.159525 -0.051043987 -0.016502485 -0.17585275 -0.04032035
-0.1316576 0.1875709 -0.17646962 -0.15911125 -0.006931305 -0.11037309 0.07303801 -0.078572616
-0.09587458 0.011561111 0.14776504 -0.14358577 0.09585798 0.13113782 0.19967368 -0.14287281
0.049436808 -0.15093488 0.17427105 -0.079181045 0.122954756 0.006077066 -0.015897736 -0.0065131485
0.034699976 0.096223325 0.032737404 0.06226906 -0.18361472 0.1487121 0.1779685 0.1687302
0.15089318 -0.1473024 -0.07566883 0.17998144 -0.1554729 0.18518576 -0.16054285 -0.14378679
0.099791795 -0.14666097 -0.046764985 0.14849865 0.16168448 0.19305158 -0.041420355 -0.1586577
0.20098287 -0.04348378 -0.083983846 0.049760133 -0.14274901 0.13416678 0.1279313 -0.16196868
-0.16766194 -0.017880544 0.08573735 -0.005911872 -0.10350678 0.0046667755 -0.19186287 -0.144267
-0.13588327 0.16810241 0.17993665 -0.06933418 0.009155035 0.09103486 0.024457619 -0.10221569
0.11772624 0.12548208 -0.011830121 -0.0251282 0.18549684 0.1784308 -0.11573395 0.19971254
0.050515115 -0.13559169 0.11174011 -0.15239389 0.18859616 -0.13122717 0.057732016 0.062155843
0.048552543 0.16930512 -0.08478286 -0.08617515 -0.17688815 -0.008377194 -0.09669781 0.008179098
-0.041845143 0.06772709 0.17658296 0.06023258 -0.065756604 -0.100162946 -0.1780275 0.17175964

conv2.bias f4 [16]
00000000: 3e32 26be 82bb 353e 895f febd 327a a3bd
00000010: 5b2b 2cbe e40a 3f3e e834 1f3d 3801 303e
00000020: e063 5a3c f839 e33d e279 85bd e9c0 26be
00000030: 4837 063d 801f 95bc c8d6 a8bc 094f cdbd
-0.16230103 0.1774731 -0.12420566 -0.07982291 -0.16813414 0.18656498 0.038868815 0.17187965
0.013329476 0.11095041 -0.06517388 -0.16284527 0.032767564 -0.018203497 -0.020610228 -0.100248404

conv3.weight f4 [32, 16, 3]
00000000: 00d3 433b f4c8 293d d046 553d a320 eebd
00000010: dccf 8e3d a02e 733c 02e2 cb3d 30e8 d03d
00000020: beca e8bd daef 0d3e 0d5b 11be a8ee a93d
00000030: 4072 263c d0e1 8b3d 33da 9fbd 36b7 b13d
00000040: 3346 92bd 2ca4 02be e812 463d 20cd a13d
00000050: 8682 123e 8027 77bc 9a2e 0e3e 22e8 bd3d
00000060: cf9b 92bd 1203 e4bd 0ecb a53d 35f4 a1bd
00000070: 7a97 873d 662a fdbd cea9 d73d f431 313d
00000080: 00ef 87bc 6e92 873d 2c74 d2bd ec3d 01bd
00000090: 8077 b93a b9ce aabd fe10 17bd f4f5 7ebd
000000a0: 40dc 0c3e 2820 fb3d bcf3 fe3d 7c9b f13d
000000b0: f98c 0dbe 90c2 453d 80e9 593d 99d1 d8bd
000000c0: e4a3 6f3d 3966 a0bd 0806 bc3c 34d3 433d
000000d0: 1c13 ff3d ee13 9bbd c292 e8bd 36c1 083e
000000e0: 682b 783d 5cad 8f3d 40d0 543d 9243 51bd
000000f0: dcd1 b13d 3309 01be c88c a43c dc9f 853d
00000100: 2cf8 c93d 9d9d 93bd 94cb c7bd 0c9a 5d3d
00000110: f1c1 eabd 40aa f5bd b6eb 04be 2b59 8fbd
00000120: 4cb2 e1bc e80d afbd 48fa 79bd 5fe0 02be
00000130: d0b0 b53d 4a58 07bd 7482 babd 70ec 193d
00000140: 6406 ddbd 62eb ce3d fcf9 a93d 143f 11be
00000150: 5e08 e8bd f5e9 c2bd f104 a0bd 68a3 933c
00000160: 9927 12be 8826 dbbd 64ff 863d a8a0 41bd
00000170: 1e41 6bbd 0e8c f4bd 749f 6f3d b0fe 263c
00000180: ea84 64bd d005 b5bd 7877 fb3c c8dc 203d
00000190: f034 833d e0b1 2f3d 245f b4bc 40d4 e4bd
000001a0: fe2e bc3d 002c a2ba 4774 c4bd e4ec fe3d
000001b0: 20d0 a43d c852 e8bd 1da1 93bd b230 49bd
000001c0: 98a5 aabd fa0a 8a3d b9e1 d2bd be5c 093e
000001d0: b45d 74bd c47c ae3d 6011 a13b f300 82bd
000001e0: 1866 c53d 278e e1bd fd65 9cbd 78b9 8d3c
000001f0: a07e ea3d 404e 7dbd 8200 b4bd c4b7 bcbd
00000200: 2253 82bd 2e39 4cbd 60b4 09bd 222a a8bd
00000210: 60c7 383d 80a5 993a 4823 c1bd 00cf a8bd
00000220: e060 fa3c 0021 07bb 6c36 d13d cc3f b3bc
00000230: 0278 efbd c4a1 dabd b088 2dbd 4ef0 02bd
00000240: a8f0 863c 1697 04bd 2024 5a3d 32a0 44bd
00000250: 90f5 d83d f0ca 073d 10c2 35bd 90b8 033e
00000260: 78ee 163d 9ae3 c8bd 2284 a4bd 0459 b93d
00000270: 1c02 873d 2cce e63d e0a7 35bc 44c0 ce3d
00000280: b4f7 923d bcd5 363d 16d5 08bd a87a 0e3e
00000290: 1047 ef3c 188a 18bd 407d 06bb d44b 113e
000002a0: d08a c63d 903f 2fbc 50e6 103e 56cf 813d
000002b0: 5f62 9dbd 7d82 06be 58c9 ab3d fe9c 0a3e
000002c0: d239 acbd 74d2 723d 0059 c93b 14d2 fcbc
000002d0: 58c1 20bd 8079 243d d055 023d 30a7 c73d
000002e0: f06c 583d 3684 863d 6062 023e d417 383d
000002f0: 3885 af3c c23c 57bd d8ca d83d d09e ae3c
00000300: 5e89 be3d 62b9 0e3e a239 04bd 7222 d03d
00000310: 0820 f0bc 7061 053e 00ab e83d d8e8 53bd
00000320: a09f a93b a117 81bd a41c 6fbd 7466 efbc
00000330: 00fb 80ba 3017 4ebd 4786 0bbe fcc9 b2bd
00000340: 8015 4abc 28bb 3cbd 988f db3d 8048 f03d
00000350: 5c51 bc3d 1ed4 823d f157 eabd 46a3 0b3e
00000360: 8c3e 02be fc5c 42bd da0c d0bd 1499 543d
00000370: e3f9 f5bd 15bb 91bd 48c5 bbbd 02b4 b5bd
00000380: 3dfe 89bd b04a 113e a027 41bc 7437 343d
00000390: 69b8 12be a669 033e 2cbd 00bd e1a4 07be
000003a0: c2b7 cb3d d0db 1fbd 3239 063e 85c8 c8bd
000003b0: 5039 09be b712 debd 880c 803d 989a 84bc
000003c0: 23ed 08be 503d db3c 00bd 16bc c095 553d
000003d0: 145e 96bd 2007 d3bd 767a c93d 993e 8ebd
000003e0: 0cf0 cf3d 48ad ef3d a1b9 cebd f848 88bd
000003f0: f856 8e3c 705b 0bbe 6890 353d 5655 76bd
0.0029880404 0.04145141 0.052069485 -0.11627319 0.0697324 0.014842659 0.09955217 0.10200536
-0.11366795 0.13861027 -0.1419489 0.08297473 0.010159075 0.0683018 -0.0780529 0.08677523
-0.07142296 -0.12757939 0.048357874 0.079004526 0.14307603 -0.015085101 0.13884965 0.092727914
-0.071586244 -0.11133398 0.0809537 -0.07907907 0.06620689 -0.123616025 0.105304345 0.04326053
-0.016593456 0.06619726 -0.10276064 -0.031553194 0.0014149994 -0.083402105 -0.03688144 -0.062246278
0.13755894 0.12261993 0.124488324 0.117972344 -0.13823308 0.048281252 0.0532012 -0.105868526
0.058505908 -0.078319974 0.022952095 0.04780884 0.12454817 -0.07572161 -0.11356117 0.13354954
0.06058827 0.070154876 0.051956415 -0.05108983 0.086826056 -0.12601165 0.020086661 0.065246314
0.09861788 -0.07207797 -0.09755626 0.05410199 -0.11462773 -0.11995363 -0.12980542 -0.06999429
-0.027550839 -0.08547574 -0.061029702 -0.12780903 0.08871615 -0.033043183 -0.09106913 0.037579
-0.107922345 0.101034895 0.08299634 -0.14184219 -0.11329721 -0.0951728 -0.078134425 0.018022254
-0.14272918 -0.10700709 0.06591681 -0.047272354 -0.057435147 -0.11940776 0.058501676 0.010192558
-0.05579082 -0.08838999 0.030696616 0.039273053 0.064065814 0.042894244 -0.022018023 -0.11173296
0.091886505 -0.0012372732 -0.09592491 0.12447527 0.08047509 -0.11343914 -0.07208464 -0.049118705
-0.08332366 0.06740375 -0.102969594 0.13414285 -0.059659675 0.08519891 0.0049154013 -0.06347837
0.096386135 -0.110134415 -0.0763664 0.017300352 0.11449933 -0.061842203 -0.08789159 -0.09214738
-0.063635126 -0.04985922 -0.033619285 -0.08211161 0.045112014 0.0011722296 -0.094305575 -0.08242607
0.030563772 -0.0020619035 0.10215458 -0.021881007 -0.116928115 -0.106753856 -0.042366683 -0.031967454
0.016472176 -0.03237065 0.053257108 -0.048004337 0.10593712 0.03315252 -0.044374526 0.12863374
0.036848515 -0.098090366 -0.08033015 0.090501815 0.06592199 0.11269793 -0.011087388 0.100952655
0.07176152 0.044637427 -0.03340634 0.13913977 0.02920869 -0.03724107 -0.0020521432 0.14189082
0.09694445 -0.010696307 0.14150357 0.06338374 -0.076847784 -0.13135715 0.08388013 0.1353645
-0.08409466 0.059282735 0.006144643 -0.030861892 -0.039246887 0.040154934 0.03182012 0.09748685
0.052838266 0.06568186 0.1273284 0.0449446 0.021425828 -0.052548178 0.105855644 0.021315962
0.093035445 0.13937905 -0.032281525 0.1016282 -0.029312149 0.1302545 0.11360741 -0.05173573
0.0051764995 -0.06303335 -0.058376923 -0.029223658 -0.0009840429 -0.050315082 -0.13625441 -0.08729932
-0.012334228 -0.046076924 0.10720748 0.11732578 0.091952056 0.063881144 -0.11442555 0.13636503
-0.12719172 -0.047451958 -0.10158701 0.0519038 -0.12010553 -0.07115761 -0.09168488 -0.088722244
-0.06737945 0.14188647 -0.0117892325 0.043998197 -0.1432816 0.1283327 -0.03143041 -0.1324649
0.099471584 -0.03902799 0.13107756 -0.09803871 -0.13400769 -0.10843413 0.0625239 -0.016186997
-0.1337171 0.026762635 -0.009200335 0.052144766 -0.07342163 -0.10304093 0.09837811 -0.06945533
0.10153207 0.11702973 -0.10094 -0.06654543 0.017375454 -0.136091 0.04432717 -0.060139976

conv3.bias f4 [32]
00000000: 906d bb3d eaea 8a3d b802 5bbd 1447 3bbd
00000010: e805 f93c 1449 f33d 5031 33bc 3cfb 2fbd
00000020: 8e50 a33d eaf7 c33d 4097 2fbb 82d3 2ebd
00000030: ba3f 13be c049 113c 543a 353d 3205 d9bd
00000040: b477 dbbd 7cc3 13be 40f9 e63d 868e 0a3e
00000050: 3446 123e 44f3 033e 5050 79bc 947a 833d
00000060: 38f7 ae3d c4ed 1dbd 184f aabd 1410 f63d
00000070: 50d0 77bc 5001 5a3d 253c 8abd df7c 98bd
0.09151757 0.067830876 -0.05346939 -0.045722082 0.030398324 0.11879173 -0.01093705 -0.042964205
0.07974349 0.0956877 -0.0026793033 -0.04268218 -0.14379779 0.008867681 0.04424508 -0.10596694
-0.10716191 -0.1443004 0.112780094 0.13530931 0.14284593 0.12885767 -0.015216902 0.06419864
0.08543247 -0.03855683 -0.08315867 0.120147854 -0.015125349 0.053223908 -0.06749753 -0.07445692

conv4.weight f4 [64, 32, 3]
00000000: 94ec 9abc 2033 5d3b dc50 773d c2c8 873d
00000010: c01a 52bc c67f cd3d ab8d 5ebd b0ca e03b
00000020: c300 83bd ccde 883c 4282 be3d ace6 acbd
00000030: 80ae c43c 3719 c0bd 24ff babc a279 44bd
00000040: 0068 3439 ac0e 91bd 9057 d43c 0e3b c5bd
00000050: 6049 b73c 3a34 21bd ba2d 7abd b033 b13d
00000060: b885 343c da5c 8abd 92a1 6bbd 4885 3abd
00000070: d55d 77bd 20c6 4e3c 0056 bc3a 9439 b63d
00000080: e04a 433b d7fe 5ebd 5cbb b33d 1843 d23c
00000090: b467 b4bc 6cb1 923d f85a ab3d e2f7 afbd
000000a0: 9c64 acbd f77e 89bd 6cc0 b3bd 50d9 fabc
000000b0: 3408 193d 77ac bebd 914a ccbd 8bfc b3bd
000000c0: 111f 5abd 400d 833d 1652 b93d 36a6 cf3d
000000d0: 40bc 913a 3608 b1bd 64d6 cb3d 3881 8cbd
000000e0: 58d6 1d3d d8f7 503d d83d 013d d0f9 093d
000000f0: 37fd c2bd 32dd 0cbd fa71 86bd b65b 903d
00000100: 0e84 6dbd 6003 20bb bac9 b93d 2a6e 9e3d
00000110: 3b63 96bd 8c5e aebd e46f a53d 889f f03c
00000120: 0f41 a0bd fcbb b43d 68e6 96bd 58f2 b43d
00000130: 6cf5 953d 3af3 943d cc68 a0bc 7054 113c
00000140: d48a aebd 3481 6b3d 60d5 c03b 0ec8 9a3d
00000150: 9139 30bd 16ea c93d 6c54 8b3d 0035 eabc
00000160: 9045 e43c 117c 98bd 7a2a 8bbd 9837 8fbd
00000170: 1d26 70bd 4873 e83c 882c 34bd 7063 10bd
00000180: c439 923d a018 8a3c a5be 4bbd a4e7 e2bc
00000190: 40d0 dbbc 542a 433d 9222 933d 8a8e a63d
000001a0: dc35 8ebd 20a4 32bc f841 c43c a061 23bd
000001b0: 2870 893d 70e7 39bc e06f 323c 2db3 b2bd
000001c0: 2808 973d ae80 8abd 00db 20bb 427d aabd
000001d0: ba05 9f3d c04e c13b e043 3c3d bc4a a4bd
000001e0: f02a 0e3c 5445 2b3d 769c 933d b69d 993d
000001f0: f445 95bc 40d7 29bc b8e5 0a3d 7c4f 16bd
00000200: 2e1c 2abd 1f71 c0bd 1bfa ccbd 6f1f 5cbd
00000210: 58c7 503c 08c8 063c b027 063c 106c 7a3c
00000220: c469 9abc 3e82 cebd 06a6 ba3d bef1 98bd
00000230: c0a6 9cba 241a 263d a056 d63c 8492 35bd
00000240: e4a4 b5bd ae5c a73d 809b 3e3b 48a1 be3d
00000250: e40a 433d f096 323d 94ea b43c a891 bcbc
00000260: 0802 75bd 7811 4b3c cadb c83d dc9e 7a3d
00000270: fee5 bd3d 4e06 c43d 9052 a33d 99a4 6abd
00000280: 40ab 63bd a076 65bb 7134 58bd 70dc e2bc
00000290: c033 0fbd 9ce7 b63d 00e3 e0bb 4254 ca3d
000002a0: cd13 a2bd ed2e cebd 7816 6f3c 4c9e a63c
000002b0: a1b1 28bd 318f 53bd 7022 ee3c 508b a73b
000002c0: d005 60bc b03a 543d 81c8 31bd 6c6b a43d
000002d0: 448c 8ebd 388b 59bd 30ca 103d b874 803d
000002e0: 80cb a3ba 0d15 a4bd a099 85bb 9622 0dbd
000002f0: 5294 05bd 8c8a 9abc 7028 c93c f49e c2bc
00000300: ca94 92bd 8dba 50bd 1814 afbd 57c8 d0bd
00000310: d406 4a3d 0495 693d 54f4 9d3d e05f 043c
00000320: 11f3 2bbd 166e 7bbd 2437 503d 78a4 7cbd
00000330: a634 9c3d b9bb 62bd fafd c2bd a187 96bd
00000340: 423d aa3d a4c5 9d3d 5011 cc3c 20be 1a3b
00000350: 9438 b33d 9446 7c3d 7085 773d 9443 8ebd
00000360: 34c9 853c d660 bd3d 313e 93bd 9e3d d03d
00000370: c8e7 88bd 88af f5bc 50b4 9dbb 107e d93c
00000380: c478 003d 7219 6fbd b457 3f3d 8846 dd3c
00000390: c824 3abc 2e09 d0bd 06df ce3d 4c99 1abd
000003a0: cfd3 5ebd c2fa ce3d 2fd9 53bd 18a4 8b3d
000003b0: 6818 7f3d e20c 88bd 8491 a8bd 3544 63bd
000003c0: 54d7 023d 682c c53d 50a6 b9bb 84b8 f9bc
000003d0: 1888 f0bc ff91 91bd 18e3 d03d 0016 91ba
000003e0: da68 a5bd 3ecc 8ebd d009 823d 7833 4a3d
000003f0: a8d9 863d 9849 30bc cc31 a5bc b4f8 083d
-0.018911637 0.0033752397 0.060379848 0.066300884 -0.0128237605 0.100341365 -0.054334324 0.0068600997
-0.0639663 0.0167078 0.093021885 -0.08442435 0.02400899 -0.09379809 -0.022826739 -0.04796756
0.0001720488 -0.070828766 0.02592066 -0.096304044 0.022373855 -0.039356448 -0.061078764 0.08652437
0.011018209 -0.06755991 -0.057527132 -0.045537263 -0.06039222 0.012620479 0.0014368892 0.08897701
0.0029799268 -0.054442253 0.0877597 0.025666758 -0.022022106 0.07162747 0.0836696 -0.08592202
-0.08417627 -0.0671367 -0.08776936 -0.0306212 0.03736134 -0.09310239 -0.0997516 -0.08788403
-0.053252283 0.063990116 0.0904886 0.10139124 0.0011118725 -0.08644144 0.09953001 -0.06860584
0.038534492 0.051017612 0.03155312 0.033685505 -0.09520953 -0.034390636 -0.06564708 0.070487425
-0.057987265 -0.0024416074 0.090716794 0.07735856 -0.073431455 -0.08514127 0.08077982 0.029372945
-0.07824909 0.08824918 -0.07368165 0.08835286 0.07322201 0.07272954 -0.019581221 0.008870229
-0.08522573 0.057496265 0.0058848113 0.07557689 -0.04302365 0.098591015 0.068032116 -0.028589725
0.027865201 -0.07445539 -0.06795211 -0.069930255 -0.058630098 0.028375283 -0.04398778 -0.03525108
0.07139924 0.016857445 -0.04974236 -0.027698345 -0.0268327 0.04764779 0.07184328 0.08132656
-0.069438666 -0.010903388 0.023957238 -0.039888024 0.06710845 -0.011346683 0.010890931 -0.08725581
0.073746026 -0.06762825 -0.0024544597 -0.08324672 0.07764764 0.0058992803 0.04596317 -0.08022067
0.008677229 0.041814163 0.07207577 0.07500784 -0.018221833 -0.010366261 0.033910483 -0.036696896
-0.04153078 -0.09396576 -0.10008641 -0.053740915 0.01274284 0.008226402 0.008188173 0.015284553
-0.018849261 -0.100834355 0.09113698 -0.07467984 -0.0011951551 0.040552273 0.026164353 -0.04432918
-0.08869341 0.08171974 0.0029084384 0.09308106 0.047617808 0.043600976 0.022084512 -0.023018673
-0.05981639 0.012394302 0.098075464 0.061186656 0.09272383 0.09571515 0.07974732 -0.05728588
-0.05558324 -0.0035013333 -0.052784387 -0.027693003 -0.034961462 0.08930895 -0.006862998 0.09879352
-0.07913933 -0.10067544 0.014592759 0.020339154 -0.041185025 -0.05165023 0.029069155 0.005113043
-0.013673261 0.05181378 -0.043404106 0.080283016 -0.06960347 -0.053111285 0.03534907 0.06272262
-0.0012496561 -0.080118276 -0.0040771514 -0.03445681 -0.032612152 -0.018864892 0.024555415 -0.023757435
-0.071572855 -0.05095916 -0.085487545 -0.10194462 0.049322918 0.057026878 0.077126175 0.008079499
-0.041979853 -0.061384283 0.050833836 -0.061680287 0.076272294 -0.055354808 -0.095210984 -0.07350088
0.08312465 0.077037126 0.024910599 0.0023611858 0.08751026 0.061590746 0.06042999 -0.06946483
0.016331293 0.092469856 -0.071895964 0.101680025 -0.06684834 -0.029990926 -0.0048127547 0.02654937
0.03136517 -0.058373876 0.0467145 0.027011171 -0.011361308 -0.10158001 0.10101132 -0.03774385
-0.054401215 0.10106422 -0.051720794 0.06818408 0.062279135 -0.06643082 -0.0823088 -0.05548497
0.031943634 0.096276104 -0.005665578 -0.030483492 -0.02936177 -0.07107925 0.10199565 -0.0011069179
-0.080766395 -0.0697255 0.06349528 0.04936549 0.065844834 -0.010759734 -0.020165347 0.033440307

conv4.bias f4 [64]
00000000: 978e a6bd 906d 6e3c 001d 263d 2d45 7ebd
00000010: c4b4 a73d 640a 1e3d e066 f6bc e896 043d
00000020: d3a9 bebd 2e41 c03d 74bf 153d 3800 673d
00000030: 84f2 35bd b02e 72bc f0fe 6d3d 8560 26bd
00000040: e2b5 8bbd 49d2 b2bd b806 a8bc a8b2 583c
00000050: 189d 03bd df08 aebd e8e6 b33d 5094 ec3c
00000060: 8000 6dbd 708f 11bd fdcd b6bd e8d7 013d
00000070: 80f6 cbbd 941a 12bd 2b10 9ebd dbcb a2bd
00000080: 2c7f efbc e8c3 3e3d ac34 be3d 7252 803d
00000090: f842 223c 3cd5 a4bc f022 0f3d 8072 553a
000000a0: 6564 95bd d780 a5bd 38b9 b53c 924a 5abd
000000b0: d099 acbd 822f 903d 5083 c4bc 67a1 a0bd
000000c0: c4d3 d8bc 3a4b b33d c8ff a2bd c8d3 c03d
000000d0: 787c e83c a853 b1bd 278e 35bd 501c 703c
000000e0: dc86 723d 40e8 adbc 92f7 8d3d ac97 3c3d
000000f0: 8c84 7b3d 2082 1bbc c452 babc b762 9fbd
-0.081326656 0.014552489 0.040555 -0.06207769 0.08188775 0.038584128 -0.030078351 0.032370478
-0.09309735 0.09387432 0.036559537 0.056396693 -0.044420734 -0.014781639 0.058104455 -0.040619392
-0.06821801 -0.08731515 -0.020511016 0.013226189 -0.03213224 -0.08497786 0.08784276 0.028879315
-0.057861805 -0.035537183 -0.08926008 0.031700045 -0.099591255 -0.035669878 -0.077179275 -0.079490386
-0.029235445 0.04657355 0.0928739 0.06265725 0.009903662 -0.02012121 0.03494543 0.0008142367
-0.07294539 -0.08081215 0.022183046 -0.053293772 -0.08427775 0.070403114 -0.023988396 -0.07843285
-0.026468165 0.08754583 -0.07958943 0.09415394 0.028379664 -0.08658534 -0.04432502 0.014655188
0.059210643 -0.02122891 0.06931986 0.046043083 0.061405703 -0.009491473 -0.022744544 -0.077825

conv5.weight f4 [128, 64, 3]
00000000: cd6f 92bd fba7 3dbd be61 18bd d840 433c
00000010: 1445 4a3d 48be 13bc b03b 81bc 6e8a a1bc
00000020: be35 853d 94fd 443d 8d4a 80bd 9c97 263d
00000030: 2414 6fbc e0e7 2fbd 70a9 e83c dc93 263d
00000040: 16f3 8e3d 80d9 513a 48c8 ed3c 30bf b83b
00000050: 64e5 603d f6a6 4cbd a23d 91bd 780e b03c
00000060: c00e 303c 8490 e73c b6ab 273d 84d9 80bc
00000070: 8c1b 6abd 5236 c5bc b00b 81bb 3c2c 5abd
00000080: 5854 513c 462d 3b3d 28b7 44bc 14e4 e53c
00000090: e232 0d3d 6677 8e3d 4000 99ba 2832 35bc
000000a0: 2064 e63b 82a0 e8bc ec02 653d 80d9 a03b
000000b0: cc99 76bd 5cfe 3cbd 1a7f f6bc 0052 1f3c
000000c0: e0fe 08bc b6e7 203d 4cc5 623d 3064 4dbc
000000d0: 60c5 73bb cae1 863d fc73 45bc 8e6f 333d
000000e0: 9812 42bd 40d6 3b3b 16dc 2f3d e0a8 82bd
000000f0: 68e7 49bd ac3a 9abc 717d 69bd aa93 8c3d
00000100: 6021 2b3b 0421 e23c 594f 91bd 9882 44bd
00000110: 205d babc e063 06bc 3d65 74bd 40a0 753c
00000120: 60ac 0d3d 45e8 8ebd 532e 58bd c04c c93b
00000130: 20a3 273b ccbc 40bd 6a31 493d a032 63bc
00000140: 966f 293d 08d8 5ebd 14bf 6fbc 2680 42bd
00000150: 0cca 1ebc 762f 443d 70ef d43c 0c35 8bbd
00000160: 1c54 dd3c 249c 68bd e47c 1dbd ae36 253d
00000170: c67d 373d ec36 233d d801 2d3c 103e a13b
00000180: 1a8d 2abd 7629 7dbd 1630 cbbc 911d 44bd
00000190: 26b8 873d 20a9 c43c 7898 7f3c a09f e63c
000001a0: deb2 1d3d 506c cdbb 4477 ac3c d181 82bd
000001b0: 2619 843d 1ce4 843d 42c8 3c3d 5c0a 0e3d
000001c0: 703e 173d c42c bb3c bc62 d23c 4010 c3bb
000001d0: 00a1 8b3b b872 76bd 5894 52bc 288a 633c
000001e0: c2c1 89bd 86f9 ffbc d04f bcbb 82ab 823d
000001f0: 4665 903d 8049 853d 287c 5d3c 445e 6abd
00000200: b69c 52bd 685e 7f3c e0e4 3e3c 70ad d93c
00000210: fb1f 92bd 4616 31bd be55 37bd 8884 753d
00000220: 7fb6 91bd df0c 14bd 28fe 463d ac9a 4dbc
00000230: d83c 5fbd 49c0 58bd c888 473c 1433 6f3d
00000240: b429 1e3d 00e4 fe3c 2635 15bd f8b7 553c
00000250: f715 54bd 94bc 36bd 114f 14bd 06da 1c3d
00000260: d248 cebc a5cc 7ebd 5000 313d b027 03bc
00000270: 2008 493c 3c52 0a3d 7022 f6bb c064 c43c
00000280: c665 4b3d 8e3c a4bc a42b 663d f4e5 9a3c
00000290: c098 413b acb2 71bd b82b 653d 48b4 7c3c
000002a0: 524c 373d d097 0d3c 80a5 1a3d 1c1c 6b3d
000002b0: 302e da3b e0b8 003c 9f96 86bd 5214 83bc
000002c0: 3bbf 4bbd 24b9 773d 70aa 7c3c f065 62bd
000002d0: 5890 9ebc e85f bdbc 802a 713d 0896 253d
000002e0: 242e ed3c 008b 513d 7a50 33bd 9c83 fa3c
000002f0: c212 0dbd 3067 32bc 8acc abbc e019 b33c
00000300: d889 923d cca4 7f3d f52c 11bd 48a5 6f3d
00000310: 7015 cabc 201f 1fbc 4055 0bbd 9653 6dbd
00000320: c86f c3bc 3855 6abc 8c25 88bd 1ec1 0a3d
00000330: 1805 18bc ac46 953c 8c70 73bd a0a7 283c
00000340: c07a a1bc 02fd 57bd c8b6 063c 552d 7dbd
00000350: 7365 7bbd 3cc7 abbc 70ef 8a3d 32e3 89bc
00000360: 4cb6 4cbc d874 693c 089c 903d 4867 8e3d
00000370: 926e c0bc 00e8 2bb8 1e6a 85bd 4c41 e3bc
00000380: f0ce 3d3d cdcd 90bd c255 67bd 2ccc f03c
00000390: bb89 82bd 10e4 f1bc 71da 6bbd 90c1 85bd
000003a0: ea8f 90bc 3869 9e3c 7e4d 0cbd 50bb 07bd
000003b0: 22fc 89bc 6411 debc 9aaf 853d 9879 503c
000003c0: 9163 8ebd 5a5b 8ebd 103d 8c3d 6005 663c
000003d0: 9a8a c7bc 2638 833d 28f2 44bc 1890 023c
000003e0: c22d 93bd 1e73 87bd ad58 91bd c821 cf3c
000003f0: b8e5 463d 8119 25bd 127d 023d 7a06 923d
-0.071502306 -0.046302777 -0.03720259 0.011917315 0.049382284 -0.009017535 -0.015775532 -0.019719329
0.06504391 0.048093393 -0.062642194 0.04067193 -0.014592204 -0.042945743 0.028401107 0.040668353
0.06979959 0.00080051273 0.029026166 0.0056380257 0.054906264 -0.049963914 -0.07091834 0.021491274
0.010745704 0.028267153 0.04093524 -0.01572872 -0.057155177 -0.024073754 -0.003938161 -0.05326484
0.012776457 0.045697473 -0.0120065585 0.028062858 0.034472354 0.06956367 -0.0011673048 -0.011059321
0.007030979 -0.028396849 0.05591099 0.0049087405 -0.060205266 -0.046141014 -0.030089904 0.00972414
-0.008361548 0.039283477 0.05536394 -0.012536094 -0.0037196502 0.065860346 -0.012051579 0.04380756
-0.047381014 0.0028661638 0.0429345 -0.063798666 -0.04929295 -0.018826805 -0.057004396 0.06864102
0.0026112422 0.027603634 -0.070952125 -0.047976106 -0.022749484 -0.008202523 -0.05966686 0.01499182
0.034588218 -0.06977896 -0.052778553 0.0061431825 0.0025579408 -0.04705505 0.04911939 -0.01386705
0.041366182 -0.054405242 -0.014632959 -0.047485493 -0.009691726 0.047896825 0.025993079 -0.06797227
0.027017646 -0.056789532 -0.038449183 0.04033535 0.04479768 0.0398473 0.010559522 0.0049207285
-0.04163847 -0.06180712 -0.024803203 -0.04787976 0.066269204 0.024006426 0.015600316 0.028152287
0.03850066 -0.0062690154 0.021052964 -0.06372417 0.06450109 0.06488821 0.04608942 0.03467785
0.03692478 0.022848494 0.025681846 -0.005952865 0.004261136 -0.060167998 -0.012852751 0.0138879195
-0.067264095 -0.031246912 -0.005746819 0.06380369 0.070505664 0.0650816 0.013518371 -0.057218805
-0.051418982 0.015586473 0.011651248 0.02657196 -0.07135006 -0.043234132 -0.044759504 0.059940845
-0.071148865 -0.036145087 0.048582226 -0.012549084 -0.054501384 -0.052917752 0.012178607 0.05839832
0.03861399 0.031114578 -0.03642764 0.01304435 -0.05177876 -0.044613436 -0.036208216 0.03829386
-0.025181208 -0.062206883 0.04321319 -0.008005068 0.012270004 0.03376983 -0.0075114295 0.023973823
0.049657606 -0.020048406 0.056193963 0.018908478 0.002954051 -0.059008285 0.055949897 0.015423842
0.04475052 0.008642152 0.03775549 0.057399854 0.006658338 0.007856578 -0.065716974 -0.0160009
-0.04974292 0.0604793 0.015421495 -0.055272996 -0.019355938 -0.02311702 0.05887842 0.040426284
0.028952666 0.05115795 -0.04377792 0.030580334 -0.034441717 -0.01088886 -0.020971555 0.021862924
0.07155198 0.062413022 -0.035443265 0.058507234 -0.024668425 -0.009712011 -0.034016848 -0.057941042
-0.023857012 -0.014302544 -0.066477865 0.033875577 -0.009278558 0.018222176 -0.059433505 0.010293871
-0.019711852 -0.05273152 0.008222289 -0.06181081 -0.061376046 -0.020969026 0.0678395 -0.016831968
-0.012494635 0.014249049 0.070610106 0.06953293 -0.023490224 -4.0985644e-05 -0.06514381 -0.027741097
0.04633993 -0.070705034 -0.05647827 0.029394232 -0.06373926 -0.029527694 -0.05758137 -0.0653106
-0.017646749 0.019337282 -0.03425359 -0.03313762 -0.01684386 -0.027107902 0.06527634 0.012724303
-0.069525845 -0.06951018 0.06847584 0.014039367 -0.024358083 0.06407194 -0.012020625 0.007968925
-0.07186462 -0.06613754 -0.07096992 0.025284663 0.04855892 -0.040307526 0.031857558 0.071301416

conv5.bias f4 [128]
00000000: 7040 e3bb 845a 883d 50e0 efbc dcb5 25bc
00000010: 7231 49bd 4870 0b3c b87b fdbc 403e 8b3b
00000020: a635 243d 8e02 4fbd 7425 3a3d 484d fd3c
00000030: d098 473c 10b8 803d 8066 593d 40c6 e3ba
00000040: 8ab8 533d f8ff 1f3d f0f2 593d b48a d53c
00000050: c854 a23c 0082 f1b9 f0bf cdbb 2c1a 453d
00000060: 30e7 e93b 8461 d63c c846 1c3d 7bfa 17bd
00000070: 1a81 86bd 0446 853d 9063 ec3c 46f3 5cbd
00000080: 9aff 8c3d b605 7fbd 8e85 4a3d 307d 023c
00000090: 8621 243d 6c7a 7d3d c028 6d3b 4458 813d
000000a0: bacf d5bc 9883 8dbc 3a15 16bd 62c1 44bd
000000b0: 2c4c 40bc 5c87 ed3c 4e81 1fbd d499 b53c
000000c0: 5ac0 1a3d 00a4 5839 68bb 5a3d 001a 813c
000000d0: ecec 9e3c 9a82 1c3d 0cbb 8ebd 4393 8cbd
000000e0: 5544 05bd 3e54 573d da46 22bd 5046 9dbb
000000f0: 5e48 2d3d ebbd 79bd c48d 85bd f6d2 38bd
00000100: 78d3 b53c dc85 b2bc 1701 88bd bc50 753d
00000110: 40b7 d63b 70df e9bb c8f0 25bd 1ded 7fbd
00000120: 54f2 733d 32b3 c6bc 5244 84bd 86ec 133d
00000130: e2b4 4f3d 2e70 8bbc 700f 8cbc c0c2 b13c
00000140: 2888 343c dc72 76bd 4809 a73c 28b1 e1bc
00000150: 20d9 553d 2a93 8d3d 440e 183d 803f c43c
00000160: 8059 773d 925a 1f3d 6f36 17bd 9c2d 823c
00000170: 565b e8bc c99a 88bd f859 17bd b838 32bd
00000180: 8206 d9bc 0869 5e3d 690f 0dbd 420e 233d
00000190: 7020 9fbb 402d f63b d040 b63c a06d f7bb
000001a0: 30f1 b53c 42c8 31bd 0415 c93c a881 e7bc
000001b0: a6db 9ebc f8ba 073c 0a20 0a3d 588a 1b3d
000001c0: 2a4d 5ebd 4afb 51bd 6c27 0b3d 94b5 843d
000001d0: 48a7 91bc 1241 c2bc 666a 44bd ccb2 4a3d
000001e0: 228f 503d f2d3 843d 5c8c 5c3d 711e 45bd
000001f0: 8848 5e3d 8002 15bb 3abe 893d 0c6d 8d3c
-0.006935172 0.066578895 -0.029281765 -0.010114159 -0.04911942 0.008510657 -0.030942783 0.004249364
0.040090226 -0.050539546 0.045445874 0.03092064 0.012182429 0.06285107 0.053076267 -0.0017377809
0.051689662 0.03906247 0.0532102 0.026067115 0.019815817 -0.0004606396 -0.0062789842 0.048120663
0.0071381554 0.026169546 0.03815344 -0.03710411 -0.06567593 0.06507495 0.028856069 -0.05394294
0.0688469 -0.062261306 0.049443774 0.007964417 0.040071033 0.06188433 0.003618762 0.063156635
-0.026100028 -0.017274663 -0.036641337 -0.048035987 -0.011736911 0.028995208 -0.038941674 0.022168078
0.037781097 0.0002066046 0.05340138 0.015759468 0.019400083 0.03821049 -0.0696927 -0.068640254
-0.03253587 0.052570574 -0.03961835 -0.0047996417 0.042305343 -0.060972136 -0.0652118 -0.045123063
0.022195563 -0.021792345 -0.06640833 0.059891447 0.006552607 -0.0071372315 -0.04051283 -0.06248199
0.059557274 -0.024255369 -0.064583436 0.03611424 0.050709613 -0.017021265 -0.017097205 0.02169931
0.01101879 -0.060168132 0.020390168 -0.027550295 0.05220902 0.06912835 0.03712298 0.02395606
0.06038809 0.038904734 -0.036917146 0.015890889 -0.028363865 -0.06670148 -0.036951035 -0.043511122
-0.026492361 0.054299384 -0.034438524 0.03980852 -0.004856162 0.0075127184 0.022247702 -0.00755091
0.022209734 -0.04340387 0.024546154 -0.028260067 -0.019391846 0.008284323 0.03372196 0.03797373
-0.054272808 -0.05126504 0.033973143 0.06479946 -0.017779961 -0.023712669 -0.047953032 0.04948692
0.050917752 0.06485738 0.053844795 -0.048124734 0.05426839 -0.0022737086 0.06725736 0.017263912

conv6.weight f4 [128, 64, 3]
00000000: 40cd 6e3d 94bb 47bc c899 82bd 0cef b23c
00000010: 0e5f 313d c480 7a3d d4f0 863c 047b 2e3d
00000020: 104a 6d3d f635 a9bc 4fa1 1abd 6698 78bd
00000030: 2cd1 583d ac52 8c3d 9cff 7e3d 94da 183d
00000040: 00dc 383b 76ef 54bd 407d 843c 78cb 8e3c
00000050: 9625 b6bc ac9f c5bc 7217 1a3d 4ec4 eabc
00000060: 6076 27bd 3e42 423d 2e9e d4bc f893 88bc
00000070: 4c33 6b3d 72b8 4bbd 56fc 183d c0e1 413b
00000080: 10a8 5e3c 489a b73c c045 aebb a07d 94bc
00000090: da78 bcbc 833b 63bd e4b9 273d fe97 4ebd
000000a0: fde3 09bd 706a 923b 00e2 e3bb aebe 873d
000000b0: b020 6cbc c07f f0ba 7cdc 883c f400 903d
000000c0: 225e 4bbd e44b b3bc 223a 97bc 280f 853d
000000d0: f8ea 7c3d ecd5 ff3c 6841 33bd 64e4 713d
000000e0: 748f 5cbc 0fbb 2ebd edbd 43bd c416 20bd
000000f0: bc5c 64bd e2ff 033d de96 323d 2424 d2bc
00000100: 70ec 9a3b e04e 1e3c c036 cf3b 1846 f43c
00000110: 3053 1ebc d260 84bd c467 85bd 125f 4b3d
00000120: 5861 b6bc ce36 193d 30c3 333d 649e e5bc
00000130: d4b6 a3bc f0ed 83bb f7e4 83bd c4ba 0e3d
00000140: a25d 933d 34e0 5bbd 5076 373d 361a 87bd
00000150: e434 3d3d 7058 b43c 80b5 e6bb 8400 7d3d
00000160: 8d32 3abd 8a12 1b3d 0072 3d3d f435 903d
00000170: a887 0dbc 5a27 71bd c0e4 92ba 5095 903d
00000180: a470 a43c 602d 333c acb7 bd3c 70eb 8dbd
00000190: 0c9a 87bc 7c9e 903d b8ea c73c d0d7 1abd
000001a0: a06f 213d da6e fbbc 2016 53bd c417 a0bc
000001b0: 7cb3 9a3c da89 17bd 70ed f63c e2c6 cbbc
000001c0: ccb7 013d 80fd 8b3b bcd3 8f3c 84cd 66bc
000001d0: dc95 943c 5fd5 1cbd 78bc e33c 4d8e 4cbd
000001e0: 1817 173d f60a 243d 00ac 5e3c 003e 64b9
000001f0: e466 46bd 682e c8bc d8b9 55bd 1c17 6f3d
00000200: 0896 c1bc 4cc9 6d3d f894 7bbc 809e 52ba
00000210: 8c2a 5dbd 101d 03bc 90fe a0bb 58dc 8a3c
00000220: a4f8 28bc ee64 2c3d 0cb4 6ebc 06e0 dcbc
00000230: 84ec 743d 3057 fd3c 4c09 5bbd 9a32 03bd
00000240: 78ff de3c 19e5 0abd 640d 8a3d be2a 893d
00000250: 5285 193d 3a2a 413d 8a88 8cbd a0b5 fa3c
00000260: 5c3a 6b3d b685 42bd 7ae9 053d 62bd 0dbd
00000270: 100f f43b 9ee7 923d d072 c1bb 586d 883d
00000280: e1ac 7bbd a8c6 4c3d ccbe 683d b415 eb3c
00000290: 107f bcbb 282b 01bc 00a9 5a3d 8a27 2dbd
000002a0: 3848 7c3d ce2f 033d 9c27 aa3c 84eb 5fbc
000002b0: e4b4 fbbc 4064 403d 00fd 7b3d 0033 cf3a
000002c0: e093 843c b42f 333d 4230 f5bc 76f1 8ebd
000002d0: 02a5 113d db4d 4fbd e8e5 91bd 043d a9bc
000002e0: dbb1 93bd 2d05 6fbd 9c70 92bd 02a5 573d
000002f0: 26be 1a3d 92b7 53bd d87c 133c 605a 8a3c
00000300: 20c6 ae3c 6811 3bbc e482 c2bc e094 7ebd
00000310: 042b 753d 98ca e73c 48f5 833d 783b a53c
00000320: 8002 b1ba e05e 3bbc 202c 6d3c 983f f6bc
00000330: cf81 84bd 34d1 6d3d 22c6 aabc d8ab 8e3d
00000340: 48f2 8a3d d0f3 be3b 20eb b13c c03d de3c
00000350: 906a 75bc 64f9 793d 3081 94bb dc0f 333d
00000360: 80f7 f23a a699 cbbc fbd2 78bd a021 ba3b
00000370: 40d1 0b3c 2c93 403d 3866 f6bc 8c98 563d
00000380: fc43 8f3d 746f f33c 162b 843d 38d5 81bd
00000390: ae20 68bd a8c5 8f3c 96ff 8ebd 2893 7c3c
000003a0: 70c8 983c 207e 033d 0f5a 4cbd 3833 47bc
000003b0: 480d 873d c450 8b3d 3c62 703d 86b9 133d
000003c0: fa2f 43bd b768 47bd c42c 893d 8c74 cc3c
000003d0: cc93 783d e7a7 0ebd 125b 853d e690 febc
000003e0: 3cdc f5bc c8f0 9f3c 282e 373c a40f 643d
000003f0: 84c5 b43c 18bf 70bd a211 8abc 0bba 58bd
0.05830121 -0.012190718 -0.06376988 0.021842502 0.04330354 0.061157957 0.016472258 0.042597786
0.05793196 -0.020655613 -0.037751492 -0.060692213 0.052933857 0.06851706 0.062255487 0.037317827
0.0028207302 -0.05198618 0.016173005 0.017431006 -0.02223472 -0.024123989 0.037620015 -0.028658058
-0.040884376 0.047426455 -0.025954332 -0.01667212 0.057421967 -0.049736448 0.03735002 0.002958402
0.013589874 0.022412434 -0.0053183734 -0.018126309 -0.023006845 -0.055476677 0.040948763 -0.05043792
-0.033664692 0.0044682547 -0.0069544315 0.06628166 -0.01441209 -0.0018348619 0.016706698 0.07031432
-0.04965032 -0.021886773 -0.018460337 0.064970315 0.06174752 0.031229936 -0.043763548 0.0590557
-0.013461936 -0.04265886 -0.04778855 -0.03908421 -0.0557525 0.03222645 0.04360091 -0.025651999
0.0047278926 0.00966236 0.0063236654 0.02981858 -0.009663388 -0.064637795 -0.06513932 0.049651213
-0.022263214 0.03740578 0.043887317 -0.028029628 -0.01998464 -0.004026167 -0.06440156 0.034846082
0.071955934 -0.053680614 0.044790566 -0.06596796 0.04619302 0.022014827 -0.0070406795 0.06176807
-0.045458365 0.037859477 0.046251297 0.07041541 -0.0086383 -0.05887542 -0.0011207089 0.07059729
0.020073242 0.010936111 0.02315887 -0.06929672 -0.016552947 0.070614785 0.024403915 -0.03780347
0.039413095 -0.030692507 -0.051534772 -0.019542582 0.018884413 -0.0369967 0.030142516 -0.024875108
0.031669423 0.004272163 0.017557018 -0.014087085 0.018137865 -0.038289424 0.02779983 -0.049940396
0.03688726 0.040049516 0.013590813 -0.00021766871 -0.048437968 -0.02443619 -0.052179188 0.05837165
-0.02363111 0.0580533 -0.015355341 -0.00080344826 -0.053995654 -0.0080025345 -0.0049131587 0.016950771
-0.010313187 0.04208844 -0.014569294 -0.026962291 0.05979587 0.030925363 -0.053475663 -0.03203068
0.027221426 -0.03390989 0.06740835 0.066976056 0.03748066 0.04715941 -0.0686198 0.030604184
0.057428703 -0.047490798 0.032693364 -0.034604438 0.0074480847 0.07173084 -0.0059035793 0.06661481
-0.061444167 0.04999414 0.056822583 0.028696872 -0.0057524517 -0.007883824 0.053383827 -0.042274036
0.06159231 0.032028012 0.02077084 -0.013666991 -0.030725904 0.046970606 0.061520576 0.0015808046
0.016183794 0.043746665 -0.029930238 -0.06979649 0.035557754 -0.050611358 -0.07123929 -0.020658977
-0.072116576 -0.058354545 -0.07150385 0.052647598 0.037778996 -0.05168874 0.009001933 0.016888797
0.021334708 -0.011417724 -0.023744054 -0.062153697 0.059855476 0.028294846 0.06443268 0.020169958
-0.0013504773 -0.011436194 0.014475852 -0.03005962 -0.064700715 0.05806084 -0.02084643 0.0696637
0.06784493 0.0058274046 0.021718562 0.027129054 -0.01497902 0.061028853 -0.004532002 0.043716297
0.0018536896 -0.024853539 -0.06074808 0.005680278 0.008533776 0.047015354 -0.030078039 0.052391574
0.06995389 0.02971623 0.064535305 -0.063394964 -0.05667179 0.017550305 -0.06982343 0.015415944
0.018650264 0.032102704 -0.049890574 -0.012158208 0.0659433 0.06802514 0.058687434 0.0360656
-0.047653176 -0.04868385 0.066979915 0.024957918 0.060687825 -0.034828093 0.06511511 -0.031074952
-0.030012242 0.019523993 0.011180438 0.05567898 0.022066839 -0.05877599 -0.016854111 -0.0529118

conv6.bias f4 [64]
00000000: 3eb6 123d d480 f1bc 50e2 18bc 42f2 223d
00000010: 70e4 e53b b4c2 23bc 103d 22bc 6094 8a3c
00000020: 16b8 8f3d 80e4 c83c ca77 833d d02e 4a3d
00000030: 7eba 933d 1428 253d 66c1 36bd c66b 5fbd
00000040: 860e fbbc 8032 273c 46ee 89bc baa2 113d
00000050: abaa 17bd 5c01 f0bc 28ce e7bc 08be 8e3c
00000060: 71bf 8dbd d096 6e3c f499 3abd 7611 67bd
00000070: c8b1 503c 3a69 9dbc 48b1 6c3d d878 7abd
00000080: 9861 1e3d 344c 2f3d 5deb 1bbd 8c05 a83c
00000090: 08c2 3b3c 920d 11bd b393 45bd 2002 05bc
000000a0: 9e97 013d 8752 91bd 505e 89bc 441b 983c
000000b0: e89b 7fbd 902c 5d3d 188e 113d d012 413c
000000c0: c044 be3c de3b ffbc f071 7fbd 2422 44bd
000000d0: b697 293d c8b9 0c3d 1a1f 3abd 0e59 2ebd
000000e0: d891 c0bc 2445 3ebd 8f7e 8ebd 25f3 85bd
000000f0: a817 17bc 0e9f 2b3d 3cfd 913d 068b 4dbd
0.03581833 -0.029480375 -0.009331301 0.039781816 0.0070157573 -0.009995151 -0.009902254 0.016916454
0.070175335 0.02452302 0.06419332 0.04936105 0.07213305 0.040321425 -0.044618033 -0.05454614
-0.030646574 0.010204911 -0.01683725 0.03555558 -0.037027996 -0.029297523 -0.028296545 0.017424598
-0.0692128 0.014562324 -0.045556977 -0.056413136 0.012737699 -0.019215215 0.057786256 -0.0611504
0.03866729 0.042797282 -0.038066257 0.020510457 0.011459835 -0.035413332 -0.04823656 -0.008118182
0.031638734 -0.07095819 -0.016768605 0.018567689 -0.062404543 0.053997576 0.0355359 0.01178427
0.023226142 -0.031156477 -0.06236452 -0.04788412 0.04140445 0.034356862 -0.045439817 -0.042565398
-0.023507044 -0.046452656 -0.06957733 -0.06540517 -0.009221949 0.041899733 0.07128379 -0.05018141

conv7.weight f4 [128, 32, 3]
00000000: a82b 383d 864a c2bd c037 09bb 80e5 483b
00000010: 5e46 06bd bebd 82bd 47eb 7cbd 44f3 b63c
00000020: 2c1c 083d f60a bcbd a8df 47bc e8ed 16bc
00000030: 5bd9 88bd 34a1 803c c4f5 ab3d 50ab 2f3d
00000040: 26ba 853d 7cde 5d3d 9ce9 663d 80e5 bdbb
00000050: 53fe 7cbd 3ef0 cdbd 9847 babd 6c76 563d
00000060: 7454 533d 7a00 b0bd c060 f6bb c054 a2ba
00000070: f431 26bd a1ae afbd 84e3 ae3c 244d 5e3d
00000080: a68f 01bd 20c6 30bc 20c0 26bd d03b 843d
00000090: 7a27 9a3d c853 8cbd 21d3 4dbd b827 32bc
000000a0: 78ee ce3c 1852 e73c b4c3 a6bc 747e 17bd
000000b0: dc90 adbd fccc b9bd 4b36 2abd f8e7 493c
000000c0: 1a0d 8c3d 30c4 21bc 0863 583d 44ab 913c
000000d0: ebc9 bbbd 4215 bf3d b278 89bd 8002 e13b
000000e0: 2470 29bd 6470 0d3d 82d2 873d 28d7 bcbd
000000f0: 8064 c8bd 24e2 5e3d 4067 d9ba 30d9 05bc
00000100: 9834 b33c b525 58bd a664 afbd cade 823d
00000110: c8bc 17bc 08cd bbbd 10b8 bb3d 8272 ce3d
00000120: 2020 dc3c 0c36 c3bd c41b a13d 52d3 a0bd
00000130: b865 15bd c010 a13b c0c2 cabb f843 633d
00000140: c0aa 263d 3007 273d a2e3 91bd d6ee a13d
00000150: e2d0 873d 84ce af3c b009 803c dcef 8c3c
00000160: a8ab 11bc 9a02 2ebd 46b6 0dbd 241d 983d
00000170: 9801 21bd d292 cf3d 8c3c 29bd 80a4 7fba
00000180: 2bfe c1bd 645b 6c3d bedd 87bd ede5 4bbd
00000190: 0cad 82bc 1a63 9f3d 9090 aabc c6b8 cebd
000001a0: 984a df3c 604d c3bc 40d7 edbb 9628 953d
000001b0: 7d58 48bd 94c0 b2bc c0ca bd3c 00e0 cdb7
000001c0: 340f 9bbc 7ccb 523d ed5f 29bd 6eb8 84bd
000001d0: 7848 d1bc 009e 0bb9 1a12 45bd 8bfb c5bd
000001e0: 7c66 8bbc 3087 8b3b b1ee b2bd 9026 26bc
000001f0: 687d 943d d4a3 0d3d 28e9 eebc 5d83 8cbd
00000200: d387 aebd 408d 94bb f860 c03c e01d 4fbc
00000210: 10da 92bb de17 a83d 3d90 95bd 50d0 c43d
00000220: c184 a8bd 5c8f 2f3d 6448 303d 0685 813d
00000230: ae0f cc3d c304 95bd 14e5 b83d 04d9 abbd
00000240: 8816 0c3c 30c8 763d 583f 2a3d 58b3 8d3d
00000250: d8f8 eebc 4a57 bf3d fa27 b73d e8cd dfbc
00000260: b48c 963d 6cb0 273d 9d8b 9ebd d6d8 c53d
00000270: 821b bfbd f252 1cbd 02b6 953d c424 4b3d
00000280: 581f fe3c 62d8 a7bd 48a0 f73c 930f 40bd
00000290: 1464 d2bc 3860 60bc 04ff 363d dc48 86bd
000002a0: 6859 4d3d cc70 03bd 075f 92bd 58e3 3f3c
000002b0: b15f 7dbd 00b8 ba3d c7b2 c3bd 28fe f93c
000002c0: a836 d83c 2e7c 91bd 88eb 5b3c a0cb eabc
000002d0: eccb d0bc c634 99bd 3c25 2d3d 90d9 8b3c
000002e0: 9882 c03c 466b 78bd 5497 ecbc be79 38bd
000002f0: 10af ffbb f0a9 b3bc 1c98 83bd 084e eebc
00000300: 10e8 29bd 5c0b adbc 4c77 b9bd f436 a6bc
00000310: 18d3 083d da8a 893d 6cf2 efbc 580f 883d
00000320: 34b0 8e3d 7026 153c c23e b53d a67e 853d
00000330: faad c83d 74db 3b3d 49de 2fbd 080b 95bd
00000340: f073 8cbc b082 8fbd d027 ac3d b47c 543d
00000350: 14c6 d4bc 8084 303d 5c32 1a3d 5238 9e3d
00000360: 8847 993c a8e0 543c 88b1 b0bd 8569 48bd
00000370: a461 393d 4c07 21bd 3258 863d a928 3fbd
00000380: c0ab a4bc 80a3 953d 68fa 0d3c 90f5 65bc
00000390: d6d9 cf3d e81d 093d d49f 103d 7c2c 753d
000003a0: 1edc 1dbd 7063 92bb 868a b33d 0080 e6b9
000003b0: e073 763b edf2 75bd 8c55 723d 0ca3 c8bd
000003c0: 5fa1 c0bd 0cdc 87bc 8057 a83d 10ae 18bd
000003d0: 08b7 96bc 0037 96b9 e0b0 72bc 5e8e b6bd
000003e0: 6e5b b4bd 320c 993d 2844 723d 16a0 b6bd
000003f0: 34bf 9c3c 7c60 9e3c 70de a5bc 771f b3bd
0.04496351 -0.094868705 -0.002093777 0.003065437 -0.03278195 -0.06383847 -0.061747815 0.022332795
0.03322999 -0.09181778 -0.01219932 -0.009211995 -0.06682082 0.015701868 0.083964854 0.042887986
0.065296456 0.054167256 0.05637513 -0.005795181 -0.06176598 -0.10055588 -0.09095687 0.05235903
0.051594213 -0.08593841 -0.0075188577 -0.0012384877 -0.040574983 -0.0857823 0.021348722 0.054272786
-0.031631134 -0.010789424 -0.04071057 0.06456721 0.07527061 -0.068519175 -0.050250176 -0.0108737275
0.025260195 0.028237388 -0.02035699 -0.03698583 -0.08474895 -0.09072301 -0.041555684 0.012323372
0.068384364 -0.009873435 0.05282882 0.017781861 -0.09169372 0.093302265 -0.06712474 0.006866753
-0.04136671 0.034531012 0.06631948 -0.09220725 -0.09784794 0.054414883 -0.0016586557 -0.008169457
0.021875665 -0.052770335 -0.08564119 0.0639015 -0.009261318 -0.09169966 0.091659665 0.100804344
0.026870787 -0.09531793 0.07866624 -0.07852806 -0.03647396 0.004915327 -0.006187767 0.055484742
0.040690184 0.04077834 -0.07123496 0.079068825 0.06631638 0.021460779 0.01562962 0.017204218
-0.008891024 -0.04248295 -0.034597658 0.07427433 -0.03930816 0.101354256 -0.041317508 -0.00097519904
-0.09472307 0.057704344 -0.06634091 -0.04977982 -0.015951656 0.07782574 -0.020820886 -0.100938365
0.027257249 -0.023840606 -0.007258326 0.07283132 -0.048912514 -0.021820344 0.023167968 -2.4542212e-05
-0.018928148 0.05146359 -0.041351248 -0.0648049 -0.025547251 -0.00013314933 -0.048112966 -0.09667119
-0.017016642 0.004258059 -0.08736933 -0.01014103 0.07250482 0.034580067 -0.029163912 -0.06860993
-0.08522 -0.00453344 0.023483738 -0.0126414 -0.0044815615 0.08207677 -0.07302902 0.09610045
-0.08228446 0.042861328 0.043037787 0.063242 0.09963928 -0.07276299 0.09028068 -0.08391002
0.008550294 0.060249507 0.041564316 0.06918973 -0.029171392 0.09342821 0.08943172 -0.027319863
0.07351056 0.040939733 -0.07741473 0.09660499 -0.093314186 -0.03816504 0.07310106 0.04959561
0.031020805 -0.081955686 0.030227795 -0.046889853 -0.025682487 -0.013694815 0.044676796 -0.065568656
0.050134093 -0.032089993 -0.07147031 0.011711918 -0.061858837 0.091171265 -0.095555834 0.030516699
0.02639325 -0.071037635 0.013422854 -0.02866155 -0.025487863 -0.07480769 0.042271838 0.017071515
0.023499772 -0.06064918 -0.028880753 -0.045037977 -0.0078028515 -0.021931618 -0.06425497 -0.029089943
-0.041481078 -0.02112358 -0.09055957 -0.020289876 0.03340444 0.06715937 -0.0292904 0.066435516
0.06967202 0.0091034025 0.08849861 0.06518297 0.097988084 0.045863584 -0.042936597 -0.07277495
-0.017145127 -0.070073485 0.08406031 0.05187674 -0.025973357 0.04309511 0.037645683 0.07725586
0.018710867 0.012993015 -0.086276114 -0.048928756 0.045259133 -0.0393136 0.06559791 -0.046669636
-0.020101428 0.07306576 0.0086656585 -0.014035597 0.10148971 0.033475786 0.035308674 0.059856877
-0.03854 -0.0044674203 0.087666556 -0.00043964386 0.0037605688 -0.060046125 0.059163615 -0.09796724
-0.09405779 -0.016584419 0.08219814 -0.037275374 -0.018397823 -0.00028651208 -0.014812678 -0.08913873
-0.08806501 0.07473029 0.05914703 -0.08917253 0.019134142 0.019333117 -0.020247668 -0.08746236

conv7.bias f4 [32]
00000000: 24e7 bfbd 4d54 53bd c8b4 64bc b88d b73c
00000010: 1a28 c0bd 9c3a c53d 27ac a2bd 385b bd3c
00000020: 90e7 4ebd aa3d a43d a1c9 b7bd a6da a43d
00000030: 8fa9 86bd 6ae4 ab3d 28c8 a73c 8478 4a3d
00000040: 401c 98bb dcbb 52bd a0f0 5abb d435 c43d
00000050: 4851 9c3d 78da 523d 1492 533d 0101 acbd
00000060: 3055 303d 13bd a0bd 0c3c 1dbd 682c 753c
00000070: 947c 2d3d 9bae afbd 9055 403c 6eda 973d
-0.093702585 -0.051594067 -0.013959117 0.022406444 -0.09382649 0.096303195 -0.07942992 0.023114786
-0.050513804 0.08019574 -0.089740045 0.080495164 -0.065753095 0.08393176 0.020481184 0.04943134
-0.0046420395 -0.051448688 -0.0033407584 0.095805794 0.07632691 0.05147788 0.051652983 -0.08398629
0.04304999 -0.07848563 -0.038387343 0.014964201 0.042355135 -0.08578225 0.01173915 0.07414709
